…
a_transformer.cpp:26] Loading mean file from: .\\examples\\finetune_gesture_recognize\\mean_origin.mean\r\nI1008 11:27:25.110455 11844 image_data_layer.cpp:39] Opening file D:\\remark\\caffe-windows-ms\\examples\\finetune_gesture_recognize\\video\\train.txt\r\nI1008 11:27:25.113939 11844 image_data_layer.cpp:88] Shuffling data\r\nI1008 11:27:25.113939 11844 image_data_layer.cpp:98] A total of 2444 images.\r\nI1008 11:27:25.499213 11844 image_data_layer.cpp:125] output data size: 4,3,224,224\r\nI1008 11:27:25.501333 11844 net.cpp:122] Setting up data\r\nI1008 11:27:25.501333 11844 net.cpp:129] Top shape: 4 3 224 224 (602112)\r\nI1008 11:27:25.501333 11844 net.cpp:129] Top shape: 4 (4)\r\nI1008 11:27:25.506737 11844 net.cpp:137] Memory required for data: 2408464\r\nI1008 11:27:25.506737 11844 layer_factory.hpp:77] Creating layer label_data_1_split\r\nI1008 11:27:25.506737 11844 net.cpp:84] Creating Layer label_data_1_split\r\nI1008 11:27:25.506737 11844 net.cpp:406] label_data_1_split <- label\r\nI1008 11:27:25.506737 11844 net.cpp:380] label_data_1_split -> label_data_1_split_0\r\nI1008 11:27:25.506737 11844 net.cpp:380] label_data_1_split -> label_data_1_split_1\r\nI1008 11:27:25.506737 11844 net.cpp:380] label_data_1_split -> label_data_1_split_2\r\nI1008 11:27:25.506737 11844 net.cpp:122] Setting up label_data_1_split\r\nI1008 11:27:25.506737 11844 net.cpp:129] Top shape: 4 (4)\r\nI1008 11:27:25.506737 11844 net.cpp:129] Top shape: 4 (4)\r\nI1008 11:27:25.506737 11844 net.cpp:129] Top shape: 4 (4)\r\nI1008 11:27:25.506737 11844 net.cpp:137] Memory required for data: 2408512\r\nI1008 11:27:25.506737 11844 layer_factory.hpp:77] Creating layer conv1/7x7_s2\r\nI1008 11:27:25.506737 11844 net.cpp:84] Creating Layer conv1/7x7_s2\r\nI1008 11:27:25.506737 11844 net.cpp:406] conv1/7x7_s2 <- data\r\nI1008 11:27:25.506737 11844 net.cpp:380] conv1/7x7_s2 -> conv1/7x7_s2\r\nI1008 11:27:25.507735 11844 net.cpp:122] Setting up conv1/7x7_s2\r\nI1008 11:27:25.507735 11844 net.cpp:129] Top shape: 4 64 112 112 (3211264)\r\nI1008 11:27:25.507735 11844 net.cpp:137] Memory required for data: 15253568\r\nI1008 11:27:25.507735 11844 layer_factory.hpp:77] Creating layer conv1/relu_7x7\r\nI1008 11:27:25.507735 11844 net.cpp:84] Creating Layer conv1/relu_7x7\r\nI1008 11:27:25.507735 11844 net.cpp:406] conv1/relu_7x7 <- conv1/7x7_s2\r\nI1008 11:27:25.507735 11844 net.cpp:367] conv1/relu_7x7 -> conv1/7x7_s2 (in-place)\r\nI1008 11:27:25.507735 11844 net.cpp:122] Setting up conv1/relu_7x7\r\nI1008 11:27:25.507735 11844 net.cpp:129] Top shape: 4 64 112 112 (3211264)\r\nI1008 11:27:25.507735 11844 net.cpp:137] Memory required for data: 28098624\r\nI1008 11:27:25.507735 11844 layer_factory.hpp:77] Creating layer pool1/3x3_s2\r\nI1008 11:27:25.507735 11844 net.cpp:84] Creating Layer pool1/3x3_s2\r\nI1008 11:27:25.507735 11844 net.cpp:406] pool1/3x3_s2 <- conv1/7x7_s2\r\nI1008 11:27:25.507735 11844 net.cpp:380] pool1/3x3_s2 -> pool1/3x3_s2\r\nI1008 11:27:25.507735 11844 net.cpp:122] Setting up pool1/3x3_s2\r\nI1008 11:27:25.507735 11844 net.cpp:129] Top shape: 4 64 56 56 (802816)\r\nI1008 11:27:25.507735 11844 net.cpp:137] Memory required for data: 31309888\r\nI1008 11:27:25.507735 11844 layer_factory.hpp:77] Creating layer pool1/norm1\r\nI1008 11:27:25.507735 11844 net.cpp:84] Creating Layer pool1/norm1\r\nI1008 11:27:25.507735 11844 net.cpp:406] pool1/norm1 <- pool1/3x3_s2\r\nI1008 11:27:25.507735 11844 net.cpp:380] pool1/norm1 -> pool1/norm1\r\nI1008 11:27:25.507735 11844 net.cpp:122] Setting up pool1/norm1\r\nI1008 11:27:25.507735 11844 net.cpp:129] Top shape: 4 64 56 56 (802816)\r\nI1008 11:27:25.507735 11844 net.cpp:137] Memory required for data: 34521152\r\nI1008 11:27:25.507735 11844 layer_factory.hpp:77] Creating layer conv2/3x3_reduce\r\nI1008 11:27:25.507735 11844 net.cpp:84] Creating Layer conv2/3x3_reduce\r\nI1008 11:27:25.507735 11844 net.cpp:406] conv2/3x3_reduce <- pool1/norm1\r\nI1008 11:27:25.507735 11844 net.cpp:380] conv2/3x3_reduce -> conv2/3x3_reduce\r\nI1008 11:27:25.507735 11844 net.cpp:122] Setting up conv2/3x3_reduce\r\nI1008 11:27:25.507735 11844 net.cpp:129] Top shape: 4 64 56 56 (802816)\r\nI1008 11:27:25.507735 11844 net.cpp:137] Memory required for data: 37732416\r\nI1008 11:27:25.508730 11844 layer_factory.hpp:77] Creating layer conv2/relu_3x3_reduce\r\nI1008 11:27:25.508730 11844 net.cpp:84] Creating Layer conv2/relu_3x3_reduce\r\nI1008 11:27:25.508795 11844 net.cpp:406] conv2/relu_3x3_reduce <- conv2/3x3_reduce\r\nI1008 11:27:25.508795 11844 net.cpp:367] conv2/relu_3x3_reduce -> conv2/3x3_reduce (in-place)\r\nI1008 11:27:25.508795 11844 net.cpp:122] Setting up conv2/relu_3x3_reduce\r\nI1008 11:27:25.508795 11844 net.cpp:129] Top shape: 4 64 56 56 (802816)\r\nI1008 11:27:25.508795 11844 net.cpp:137] Memory required for data: 40943680\r\nI1008 11:27:25.508795 11844 layer_factory.hpp:77] Creating layer conv2/3x3\r\nI1008 11:27:25.508795 11844 net.cpp:84] Creating Layer conv2/3x3\r\nI1008 11:27:25.508795 11844 net.cpp:406] conv2/3x3 <- conv2/3x3_reduce\r\nI1008 11:27:25.508795 11844 net.cpp:380] conv2/3x3 -> conv2/3x3\r\nI1008 11:27:25.509793 11844 net.cpp:122] Setting up conv2/3x3\r\nI1008 11:27:25.510859 11844 net.cpp:129] Top shape: 4 192 56 56 (2408448)\r\nI1008 11:27:25.510859 11844 net.cpp:137] Memory required for data: 50577472\r\nI1008 11:27:25.510859 11844 layer_factory.hpp:77] Creating layer conv2/relu_3x3\r\nI1008 11:27:25.510859 11844 net.cpp:84] Creating Layer conv2/relu_3x3\r\nI1008 11:27:25.510859 11844 net.cpp:406] conv2/relu_3x3 <- conv2/3x3\r\nI1008 11:27:25.510859 11844 net.cpp:367] conv2/relu_3x3 -> conv2/3x3 (in-place)\r\nI1008 11:27:25.510859 11844 net.cpp:122] Setting up conv2/relu_3x3\r\nI1008 11:27:25.510859 11844 net.cpp:129] Top shape: 4 192 56 56 (2408448)\r\nI1008 11:27:25.510859 11844 net.cpp:137] Memory required for data: 60211264\r\nI1008 11:27:25.510859 11844 layer_factory.hpp:77] Creating layer conv2/norm2\r\nI1008 11:27:25.510859 11844 net.cpp:84] Creating Layer conv2/norm2\r\nI1008 11:27:25.510859 11844 net.cpp:406] conv2/norm2 <- conv2/3x3\r\nI1008 11:27:25.510859 11844 net.cpp:380] conv2/norm2 -> conv2/norm2\r\nI1008 11:27:25.510859 11844 net.cpp:122] Setting up conv2/norm2\r\nI1008 11:27:25.510859 11844 net.cpp:129] Top shape: 4 192 56 56 (2408448)\r\nI1008 11:27:25.510859 11844 net.cpp:137] Memory required for data: 69845056\r\nI1008 11:27:25.510859 11844 layer_factory.hpp:77] Creating layer pool2/3x3_s2\r\nI1008 11:27:25.510859 11844 net.cpp:84] Creating Layer pool2/3x3_s2\r\nI1008 11:27:25.510859 11844 net.cpp:406] pool2/3x3_s2 <- conv2/norm2\r\nI1008 11:27:25.510859 11844 net.cpp:380] pool2/3x3_s2 -> pool2/3x3_s2\r\nI1008 11:27:25.510859 11844 net.cpp:122] Setting up pool2/3x3_s2\r\nI1008 11:27:25.510859 11844 net.cpp:129] Top shape: 4 192 28 28 (602112)\r\nI1008 11:27:25.510859 11844 net.cpp:137] Memory required for data: 72253504\r\nI1008 11:27:25.510859 11844 layer_factory.hpp:77] Creating layer pool2/3x3_s2_pool2/3x3_s2_0_split\r\nI1008 11:27:25.510859 11844 net.cpp:84] Creating Layer pool2/3x3_s2_pool2/3x3_s2_0_split\r\nI1008 11:27:25.510859 11844 net.cpp:406] pool2/3x3_s2_pool2/3x3_s2_0_split <- pool2/3x3_s2\r\nI1008 11:27:25.510859 11844 net.cpp:380] pool2/3x3_s2_pool2/3x3_s2_0_split -> pool2/3x3_s2_pool2/3x3_s2_0_split_0\r\nI1008 11:27:25.510859 11844 net.cpp:380] pool2/3x3_s2_pool2/3x3_s2_0_split -> pool2/3x3_s2_pool2/3x3_s2_0_split_1\r\nI1008 11:27:25.510859 11844 net.cpp:380] pool2/3x3_s2_pool2/3x3_s2_0_split -> pool2/3x3_s2_pool2/3x3_s2_0_split_2\r\nI1008 11:27:25.510859 11844 net.cpp:380] pool2/3x3_s2_pool2/3x3_s2_0_split -> pool2/3x3_s2_pool2/3x3_s2_0_split_3\r\nI1008 11:27:25.510859 11844 net.cpp:122] Setting up pool2/3x3_s2_pool2/3x3_s2_0_split\r\nI1008 11:27:25.510859 11844 net.cpp:129] Top shape: 4 192 28 28 (602112)\r\nI1008 11:27:25.510859 11844 net.cpp:129] Top shape: 4 192 28 28 (602112)\r\nI1008 11:27:25.510859 11844 net.cpp:129] Top shape: 4 192 28 28 (602112)\r\nI1008 11:27:25.510859 11844 net.cpp:129] Top shape: 4 192 28 28 (602112)\r\nI1008 11:27:25.510859 11844 net.cpp:137] Memory required for data: 81887296\r\nI1008 11:27:25.511857 11844 layer_factory.hpp:77] Creating layer inception_3a/1x1\r\nI1008 11:27:25.511885 11844 net.cpp:84] Creating Layer inception_3a/1x1\r\nI1008 11:27:25.511885 11844 net.cpp:406] inception_3a/1x1 <- pool2/3x3_s2_pool2/3x3_s2_0_split_0\r\nI1008 11:27:25.511885 11844 net.cpp:380] inception_3a/1x1 -> inception_3a/1x1\r\nI1008 11:27:25.511885 11844 net.cpp:122] Setting up inception_3a/1x1\r\nI1008 11:27:25.511885 11844 net.cpp:129] Top shape: 4 64 28 28 (200704)\r\nI1008 11:27:25.511885 11844 net.cpp:137] Memory required for data: 82690112\r\nI1008 11:27:25.511885 11844 layer_factory.hpp:77] Creating layer inception_3a/relu_1x1\r\nI1008 11:27:25.511885 11844 net.cpp:84] Creating Layer inception_3a/relu_1x1\r\nI1008 11:27:25.511885 11844 net.cpp:406] inception_3a/relu_1x1 <- inception_3a/1x1\r\nI1008 11:27:25.511885 11844 net.cpp:367] inception_3a/relu_1x1 -> inception_3a/1x1 (in-place)\r\nI1008 11:27:25.511885 11844 net.cpp:122] Setting up inception_3a/relu_1x1\r\nI1008 11:27:25.511885 11844 net.cpp:129] Top shape: 4 64 28 28 (200704)\r\nI1008 11:27:25.511885 11844 net.cpp:137] Memory required for data: 83492928\r\nI1008 11:27:25.511885 11844 layer_factory.hpp:77] Creating layer inception_3a/3x3_reduce\r\nI1008 11:27:25.511885 11844 net.cpp:84] Creating Layer inception_3a/3x3_reduce\r\nI1008 11:27:25.511885 11844 net.cpp:406] inception_3a/3x3_reduce <- pool2/3x3_s2_pool2/3x3_s2_0_split_1\r\nI1008 11:27:25.511885 11844 net.cpp:380] inception_3a/3x3_reduce -> inception_3a/3x3_reduce\r\nI1008 11:27:25.512883 11844 net.cpp:122] Setting up inception_3a/3x3_reduce\r\nI1008 11:27:25.512954 11844 net.cpp:129] Top shape: 4 96 28 28 (301056)\r\nI1008 11:27:25.512954 11844 net.cpp:137] Memory required for data: 84697152\r\nI1008 11:27:25.512954 11844 layer_factory.hpp:77] Creating layer inception_3a/relu_3x3_reduce\r\nI1008 11:27:25.512954 11844 net.cpp:84] Creating Layer inception_3a/relu_3x3_reduce\r\nI1008 11:27:25.512954 11844 net.cpp:406] inception_3a/relu_3x3_reduce <- inception_3a/3x3_reduce\r\nI1008 11:27:25.512954 11844 net.cpp:367] inception_3a/relu_3x3_reduce -> inception_3a/3x3_reduce (in-place)\r\nI1008 11:27:25.512954 11844 net.cpp:122] Setting up inception_3a/relu_3x3_reduce\r\nI1008 11:27:25.512954 11844 net.cpp:129] Top shape: 4 96 28 28 (301056)\r\nI1008 11:27:25.512954 11844 net.cpp:137] Memory required for data: 85901376\r\nI1008 11:27:25.512954 11844 layer_factory.hpp:77] Creating layer inception_3a/3x3\r\nI1008 11:27:25.512954 11844 net.cpp:84] Creating Layer inception_3a/3x3\r\nI1008 11:27:25.512954 11844 net.cpp:406] inception_3a/3x3 <- inception_3a/3x3_reduce\r\nI1008 11:27:25.512954 11844 net.cpp:380] inception_3a/3x3 -> inception_3a/3x3\r\nI1008 11:27:25.513953 11844 net.cpp:122] Setting up inception_3a/3x3\r\nI1008 11:27:25.515099 11844 net.cpp:129] Top shape: 4 128 28 28 (401408)\r\nI1008 11:27:25.515099 11844 net.cpp:137] Memory required for data: 87507008\r\nI1008 11:27:25.515099 11844 layer_factory.hpp:77] Creating layer inception_3a/relu_3x3\r\nI1008 11:27:25.515099 11844 net.cpp:84] Creating Layer inception_3a/relu_3x3\r\nI1008 11:27:25.515099 11844 net.cpp:406] inception_3a/relu_3x3 <- inception_3a/3x3\r\nI1008 11:27:25.515099 11844 net.cpp:367] inception_3a/relu_3x3 -> inception_3a/3x3 (in-place)\r\nI1008 11:27:25.515099 11844 net.cpp:122] Setting up inception_3a/relu_3x3\r\nI1008 11:27:25.515099 11844 net.cpp:129] Top shape: 4 128 28 28 (401408)\r\nI1008 11:27:25.515099 11844 net.cpp:137] Memory required for data: 89112640\r\nI1008 11:27:25.515099 11844 layer_factory.hpp:77] Creating layer inception_3a/5x5_reduce\r\nI1008 11:27:25.515099 11844 net.cpp:84] Creating Layer inception_3a/5x5_reduce\r\nI1008 11:27:25.515099 11844 net.cpp:406] inception_3a/5x5_reduce <- pool2/3x3_s2_pool2/3x3_s2_0_split_2\r\nI1008 11:27:25.515099 11844 net.cpp:380] inception_3a/5x5_reduce -> inception_3a/5x5_reduce\r\nI1008 11:27:25.515099 11844 net.cpp:122] Setting up inception_3a/5x5_reduce\r\nI1008 11:27:25.515099 11844 net.cpp:129] Top shape: 4 16 28 28 (50176)\r\nI1008 11:27:25.515099 11844 net.cpp:137] Memory required for data: 89313344\r\nI1008 11:27:25.515099 11844 layer_factory.hpp:77] Creating layer inception_3a/relu_5x5_reduce\r\nI1008 11:27:25.515099 11844 net.cpp:84] Creating Layer inception_3a/relu_5x5_reduce\r\nI1008 11:27:25.515099 11844 net.cpp:406] inception_3a/relu_5x5_reduce <- inception_3a/5x5_reduce\r\nI1008 11:27:25.515099 11844 net.cpp:367] inception_3a/relu_5x5_reduce -> inception_3a/5x5_reduce (in-place)\r\nI1008 11:27:25.515099 11844 net.cpp:122] Setting up inception_3a/relu_5x5_reduce\r\nI1008 11:27:25.515099 11844 net.cpp:129] Top shape: 4 16 28 28 (50176)\r\nI1008 11:27:25.515099 11844 net.cpp:137] Memory required for data: 89514048\r\nI1008 11:27:25.515099 11844 layer_factory.hpp:77] Creating layer inception_3a/5x5\r\nI1008 11:27:25.515099 11844 net.cpp:84] Creating Layer inception_3a/5x5\r\nI1008 11:27:25.515099 11844 net.cpp:406] inception_3a/5x5 <- inception_3a/5x5_reduce\r\nI1008 11:27:25.515099 11844 net.cpp:380] inception_3a/5x5 -> inception_3a/5x5\r\nI1008 11:27:25.516096 11844 net.cpp:122] Setting up inception_3a/5x5\r\nI1008 11:27:25.516096 11844 net.cpp:129] Top shape: 4 32 28 28 (100352)\r\nI1008 11:27:25.516343 11844 net.cpp:137] Memory required for data: 89915456\r\nI1008 11:27:25.516343 11844 layer_factory.hpp:77] Creating layer inception_3a/relu_5x5\r\nI1008 11:27:25.516343 11844 net.cpp:84] Creating Layer inception_3a/relu_5x5\r\nI1008 11:27:25.516343 11844 net.cpp:406] inception_3a/relu_5x5 <- inception_3a/5x5\r\nI1008 11:27:25.516343 11844 net.cpp:367] inception_3a/relu_5x5 -> inception_3a/5x5 (in-place)\r\nI1008 11:27:25.516343 11844 net.cpp:122] Setting up inception_3a/relu_5x5\r\nI1008 11:27:25.516343 11844 net.cpp:129] Top shape: 4 32 28 28 (100352)\r\nI1008 11:27:25.516343 11844 net.cpp:137] Memory required for data: 90316864\r\nI1008 11:27:25.516343 11844 layer_factory.hpp:77] Creating layer inception_3a/pool\r\nI1008 11:27:25.516343 11844 net.cpp:84] Creating Layer inception_3a/pool\r\nI1008 11:27:25.516343 11844 net.cpp:406] inception_3a/pool <- pool2/3x3_s2_pool2/3x3_s2_0_split_3\r\nI1008 11:27:25.516343 11844 net.cpp:380] inception_3a/pool -> inception_3a/pool\r\nI1008 11:27:25.516343 11844 net.cpp:122] Setting up inception_3a/pool\r\nI1008 11:27:25.516343 11844 net.cpp:129] Top shape: 4 192 28 28 (602112)\r\nI1008 11:27:25.516343 11844 net.cpp:137] Memory required for data: 92725312\r\nI1008 11:27:25.516343 11844 layer_factory.hpp:77] Creating layer inception_3a/pool_proj\r\nI1008 11:27:25.516343 11844 net.cpp:84] Creating Layer inception_3a/pool_proj\r\nI1008 11:27:25.516343 11844 net.cpp:406] inception_3a/pool_proj <- inception_3a/pool\r\nI1008 11:27:25.516343 11844 net.cpp:380] inception_3a/pool_proj -> inception_3a/pool_proj\r\nI1008 11:27:25.516343 11844 net.cpp:122] Setting up inception_3a/pool_proj\r\nI1008 11:27:25.516343 11844 net.cpp:129] Top shape: 4 32 28 28 (100352)\r\nI1008 11:27:25.516343 11844 net.cpp:137] Memory required for data: 93126720\r\nI1008 11:27:25.516343 11844 layer_factory.hpp:77] Creating layer inception_3a/relu_pool_proj\r\nI1008 11:27:25.516343 11844 net.cpp:84] Creating Layer inception_3a/relu_pool_proj\r\nI1008 11:27:25.516343 11844 net.cpp:406] inception_3a/relu_pool_proj <- inception_3a/pool_proj\r\nI1008 11:27:25.516343 11844 net.cpp:367] inception_3a/relu_pool_proj -> inception_3a/pool_proj (in-place)\r\nI1008 11:27:25.516343 11844 net.cpp:122] Setting up inception_3a/relu_pool_proj\r\nI1008 11:27:25.516343 11844 net.cpp:129] Top shape: 4 32 28 28 (100352)\r\nI1008 11:27:25.516343 11844 net.cpp:137] Memory required for data: 93528128\r\nI1008 11:27:25.516343 11844 layer_factory.hpp:77] Creating layer inception_3a/output\r\nI1008 11:27:25.516343 11844 net.cpp:84] Creating Layer inception_3a/output\r\nI1008 11:27:25.517340 11844 net.cpp:406] inception_3a/output <- inception_3a/1x1\r\nI1008 11:27:25.517340 11844 net.cpp:406] inception_3a/output <- inception_3a/3x3\r\nI1008 11:27:25.517377 11844 net.cpp:406] inception_3a/output <- inception_3a/5x5\r\nI1008 11:27:25.517377 11844 net.cpp:406] inception_3a/output <- inception_3a/pool_proj\r\nI1008 11:27:25.517377 11844 net.cpp:380] inception_3a/output -> inception_3a/output\r\nI1008 11:27:25.517377 11844 net.cpp:122] Setting up inception_3a/output\r\nI1008 11:27:25.517377 11844 net.cpp:129] Top shape: 4 256 28 28 (802816)\r\nI1008 11:27:25.517377 11844 net.cpp:137] Memory required for data: 96739392\r\nI1008 11:27:25.517377 11844 layer_factory.hpp:77] Creating layer inception_3a/output_inception_3a/output_0_split\r\nI1008 11:27:25.517377 11844 net.cpp:84] Creating Layer inception_3a/output_inception_3a/output_0_split\r\nI1008 11:27:25.517377 11844 net.cpp:406] inception_3a/output_inception_3a/output_0_split <- inception_3a/output\r\nI1008 11:27:25.517377 11844 net.cpp:380] inception_3a/output_inception_3a/output_0_split -> inception_3a/output_inception_3a/output_0_split_0\r\nI1008 11:27:25.517377 11844 net.cpp:380] inception_3a/output_inception_3a/output_0_split -> inception_3a/output_inception_3a/output_0_split_1\r\nI1008 11:27:25.517377 11844 net.cpp:380] inception_3a/output_inception_3a/output_0_split -> inception_3a/output_inception_3a/output_0_split_2\r\nI1008 11:27:25.517377 11844 net.cpp:380] inception_3a/output_inception_3a/output_0_split -> inception_3a/output_inception_3a/output_0_split_3\r\nI1008 11:27:25.517377 11844 net.cpp:122] Setting up inception_3a/output_inception_3a/output_0_split\r\nI1008 11:27:25.517377 11844 net.cpp:129] Top shape: 4 256 28 28 (802816)\r\nI1008 11:27:25.517377 11844 net.cpp:129] Top shape: 4 256 28 28 (802816)\r\nI1008 11:27:25.517377 11844 net.cpp:129] Top shape: 4 256 28 28 (802816)\r\nI1008 11:27:25.517377 11844 net.cpp:129] Top shape: 4 256 28 28 (802816)\r\nI1008 11:27:25.517377 11844 net.cpp:137] Memory required for data: 109584448\r\nI1008 11:27:25.517377 11844 layer_factory.hpp:77] Creating layer inception_3b/1x1\r\nI1008 11:27:25.517377 11844 net.cpp:84] Creating Layer inception_3b/1x1\r\nI1008 11:27:25.517377 11844 net.cpp:406] inception_3b/1x1 <- inception_3a/output_inception_3a/output_0_split_0\r\nI1008 11:27:25.517377 11844 net.cpp:380] inception_3b/1x1 -> inception_3b/1x1\r\nI1008 11:27:25.518375 11844 net.cpp:122] Setting up inception_3b/1x1\r\nI1008 11:27:25.518623 11844 net.cpp:129] Top shape: 4 128 28 28 (401408)\r\nI1008 11:27:25.518623 11844 net.cpp:137] Memory required for data: 111190080\r\nI1008 11:27:25.518623 11844 layer_factory.hpp:77] Creating layer inception_3b/relu_1x1\r\nI1008 11:27:25.518623 11844 net.cpp:84] Creating Layer inception_3b/relu_1x1\r\nI1008 11:27:25.518623 11844 net.cpp:406] inception_3b/relu_1x1 <- inception_3b/1x1\r\nI1008 11:27:25.518623 11844 net.cpp:367] inception_3b/relu_1x1 -> inception_3b/1x1 (in-place)\r\nI1008 11:27:25.518623 11844 net.cpp:122] Setting up inception_3b/relu_1x1\r\nI1008 11:27:25.518623 11844 net.cpp:129] Top shape: 4 128 28 28 (401408)\r\nI1008 11:27:25.518623 11844 net.cpp:137] Memory required for data: 112795712\r\nI1008 11:27:25.518623 11844 layer_factory.hpp:77] Creating layer inception_3b/3x3_reduce\r\nI1008 11:27:25.518623 11844 net.cpp:84] Creating Layer inception_3b/3x3_reduce\r\nI1008 11:27:25.518623 11844 net.cpp:406] inception_3b/3x3_reduce <- inception_3a/output_inception_3a/output_0_split_1\r\nI1008 11:27:25.518623 11844 net.cpp:380] inception_3b/3x3_reduce -> inception_3b/3x3_reduce\r\nI1008 11:27:25.518623 11844 net.cpp:122] Setting up inception_3b/3x3_reduce\r\nI1008 11:27:25.518623 11844 net.cpp:129] Top shape: 4 128 28 28 (401408)\r\nI1008 11:27:25.518623 11844 net.cpp:137] Memory required for data: 114401344\r\nI1008 11:27:25.518623 11844 layer_factory.hpp:77] Creating layer inception_3b/relu_3x3_reduce\r\nI1008 11:27:25.519619 11844 net.cpp:84] Creating Layer inception_3b/relu_3x3_reduce\r\nI1008 11:27:25.519619 11844 net.cpp:406] inception_3b/relu_3x3_reduce <- inception_3b/3x3_reduce\r\nI1008 11:27:25.519656 11844 net.cpp:367] inception_3b/relu_3x3_reduce -> inception_3b/3x3_reduce (in-place)\r\nI1008 11:27:25.519656 11844 net.cpp:122] Setting up inception_3b/relu_3x3_reduce\r\nI1008 11:27:25.519656 11844 net.cpp:129] Top shape: 4 128 28 28 (401408)\r\nI1008 11:27:25.519656 11844 net.cpp:137] Memory required for data: 116006976\r\nI1008 11:27:25.519656 11844 layer_factory.hpp:77] Creating layer inception_3b/3x3\r\nI1008 11:27:25.519656 11844 net.cpp:84] Creating Layer inception_3b/3x3\r\nI1008 11:27:25.519656 11844 net.cpp:406] inception_3b/3x3 <- inception_3b/3x3_reduce\r\nI1008 11:27:25.519656 11844 net.cpp:380] inception_3b/3x3 -> inception_3b/3x3\r\nI1008 11:27:25.520653 11844 net.cpp:122] Setting up inception_3b/3x3\r\nI1008 11:27:25.523491 11844 net.cpp:129] Top shape: 4 192 28 28 (602112)\r\nI1008 11:27:25.523491 11844 net.cpp:137] Memory required for data: 118415424\r\nI1008 11:27:25.523491 11844 layer_factory.hpp:77] Creating layer inception_3b/relu_3x3\r\nI1008 11:27:25.523491 11844 net.cpp:84] Creating Layer inception_3b/relu_3x3\r\nI1008 11:27:25.523491 11844 net.cpp:406] inception_3b/relu_3x3 <- inception_3b/3x3\r\nI1008 11:27:25.523491 11844 net.cpp:367] inception_3b/relu_3x3 -> inception_3b/3x3 (in-place)\r\nI1008 11:27:25.523491 11844 net.cpp:122] Setting up inception_3b/relu_3x3\r\nI1008 11:27:25.523491 11844 net.cpp:129] Top shape: 4 192 28 28 (602112)\r\nI1008 11:27:25.523491 11844 net.cpp:137] Memory required for data: 120823872\r\nI1008 11:27:25.523491 11844 layer_factory.hpp:77] Creating layer inception_3b/5x5_reduce\r\nI1008 11:27:25.523491 11844 net.cpp:84] Creating Layer inception_3b/5x5_reduce\r\nI1008 11:27:25.523491 11844 net.cpp:406] inception_3b/5x5_reduce <- inception_3a/output_inception_3a/output_0_split_2\r\nI1008 11:27:25.523491 11844 net.cpp:380] inception_3b/5x5_reduce -> inception_3b/5x5_reduce\r\nI1008 11:27:25.523491 11844 net.cpp:122] Setting up inception_3b/5x5_reduce\r\nI1008 11:27:25.523491 11844 net.cpp:129] Top shape: 4 32 28 28 (100352)\r\nI1008 11:27:25.523491 11844 net.cpp:137] Memory required for data: 121225280\r\nI1008 11:27:25.523491 11844 layer_factory.hpp:77] Creating layer inception_3b/relu_5x5_reduce\r\nI1008 11:27:25.523491 11844 net.cpp:84] Creating Layer inception_3b/relu_5x5_reduce\r\nI1008 11:27:25.523491 11844 net.cpp:406] inception_3b/relu_5x5_reduce <- inception_3b/5x5_reduce\r\nI1008 11:27:25.523491 11844 net.cpp:367] inception_3b/relu_5x5_reduce -> inception_3b/5x5_reduce (in-place)\r\nI1008 11:27:25.523491 11844 net.cpp:122] Setting up inception_3b/relu_5x5_reduce\r\nI1008 11:27:25.523491 11844 net.cpp:129] Top shape: 4 32 28 28 (100352)\r\nI1008 11:27:25.523491 11844 net.cpp:137] Memory required for data: 121626688\r\nI1008 11:27:25.523491 11844 layer_factory.hpp:77] Creating layer inception_3b/5x5\r\nI1008 11:27:25.523491 11844 net.cpp:84] Creating Layer inception_3b/5x5\r\nI1008 11:27:25.523491 11844 net.cpp:406] inception_3b/5x5 <- inception_3b/5x5_reduce\r\nI1008 11:27:25.523491 11844 net.cpp:380] inception_3b/5x5 -> inception_3b/5x5\r\nI1008 11:27:25.524562 11844 net.cpp:122] Setting up inception_3b/5x5\r\nI1008 11:27:25.524562 11844 net.cpp:129] Top shape: 4 96 28 28 (301056)\r\nI1008 11:27:25.524562 11844 net.cpp:137] Memory required for data: 122830912\r\nI1008 11:27:25.524562 11844 layer_factory.hpp:77] Creating layer inception_3b/relu_5x5\r\nI1008 11:27:25.524562 11844 net.cpp:84] Creating Layer inception_3b/relu_5x5\r\nI1008 11:27:25.524562 11844 net.cpp:406] inception_3b/relu_5x5 <- inception_3b/5x5\r\nI1008 11:27:25.524562 11844 net.cpp:367] inception_3b/relu_5x5 -> inception_3b/5x5 (in-place)\r\nI1008 11:27:25.524562 11844 net.cpp:122] Setting up inception_3b/relu_5x5\r\nI1008 11:27:25.525559 11844 net.cpp:129] Top shape: 4 96 28 28 (301056)\r\nI1008 11:27:25.525559 11844 net.cpp:137] Memory required for data: 124035136\r\nI1008 11:27:25.525559 11844 layer_factory.hpp:77] Creating layer inception_3b/pool\r\nI1008 11:27:25.525559 11844 net.cpp:84] Creating Layer inception_3b/pool\r\nI1008 11:27:25.525559 11844 net.cpp:406] inception_3b/pool <- inception_3a/output_inception_3a/output_0_split_3\r\nI1008 11:27:25.525559 11844 net.cpp:380] inception_3b/pool -> inception_3b/pool\r\nI1008 11:27:25.525559 11844 net.cpp:122] Setting up inception_3b/pool\r\nI1008 11:27:25.525559 11844 net.cpp:129] Top shape: 4 256 28 28 (802816)\r\nI1008 11:27:25.525559 11844 net.cpp:137] Memory required for data: 127246400\r\nI1008 11:27:25.525559 11844 layer_factory.hpp:77] Creating layer inception_3b/pool_proj\r\nI1008 11:27:25.525559 11844 net.cpp:84] Creating Layer inception_3b/pool_proj\r\nI1008 11:27:25.525559 11844 net.cpp:406] inception_3b/pool_proj <- inception_3b/pool\r\nI1008 11:27:25.525559 11844 net.cpp:380] inception_3b/pool_proj -> inception_3b/pool_proj\r\nI1008 11:27:25.525559 11844 net.cpp:122] Setting up inception_3b/pool_proj\r\nI1008 11:27:25.525559 11844 net.cpp:129] Top shape: 4 64 28 28 (200704)\r\nI1008 11:27:25.525559 11844 net.cpp:137] Memory required for data: 128049216\r\nI1008 11:27:25.525559 11844 layer_factory.hpp:77] Creating layer inception_3b/relu_pool_proj\r\nI1008 11:27:25.525559 11844 net.cpp:84] Creating Layer inception_3b/relu_pool_proj\r\nI1008 11:27:25.525559 11844 net.cpp:406] inception_3b/relu_pool_proj <- inception_3b/pool_proj\r\nI1008 11:27:25.525559 11844 net.cpp:367] inception_3b/relu_pool_proj -> inception_3b/pool_proj (in-place)\r\nI1008 11:27:25.525559 11844 net.cpp:122] Setting up inception_3b/relu_pool_proj\r\nI1008 11:27:25.525559 11844 net.cpp:129] Top shape: 4 64 28 28 (200704)\r\nI1008 11:27:25.525559 11844 net.cpp:137] Memory required for data: 128852032\r\nI1008 11:27:25.525559 11844 layer_factory.hpp:77] Creating layer inception_3b/output\r\nI1008 11:27:25.525559 11844 net.cpp:84] Creating Layer inception_3b/output\r\nI1008 11:27:25.525559 11844 net.cpp:406] inception_3b/output <- inception_3b/1x1\r\nI1008 11:27:25.525559 11844 net.cpp:406] inception_3b/output <- inception_3b/3x3\r\nI1008 11:27:25.525559 11844 net.cpp:406] inception_3b/output <- inception_3b/5x5\r\nI1008 11:27:25.526556 11844 net.cpp:406] inception_3b/output <- inception_3b/pool_proj\r\nI1008 11:27:25.526568 11844 net.cpp:380] inception_3b/output -> inception_3b/output\r\nI1008 11:27:25.526620 11844 net.cpp:122] Setting up inception_3b/output\r\nI1008 11:27:25.526620 11844 net.cpp:129] Top shape: 4 480 28 28 (1505280)\r\nI1008 11:27:25.526620 11844 net.cpp:137] Memory required for data: 134873152\r\nI1008 11:27:25.526620 11844 layer_factory.hpp:77] Creating layer pool3/3x3_s2\r\nI1008 11:27:25.526620 11844 net.cpp:84] Creating Layer pool3/3x3_s2\r\nI1008 11:27:25.526620 11844 net.cpp:406] pool3/3x3_s2 <- inception_3b/output\r\nI1008 11:27:25.526620 11844 net.cpp:380] pool3/3x3_s2 -> pool3/3x3_s2\r\nI1008 11:27:25.526620 11844 net.cpp:122] Setting up pool3/3x3_s2\r\nI1008 11:27:25.526620 11844 net.cpp:129] Top shape: 4 480 14 14 (376320)\r\nI1008 11:27:25.526620 11844 net.cpp:137] Memory required for data: 136378432\r\nI1008 11:27:25.526620 11844 layer_factory.hpp:77] Creating layer pool3/3x3_s2_pool3/3x3_s2_0_split\r\nI1008 11:27:25.526620 11844 net.cpp:84] Creating Layer pool3/3x3_s2_pool3/3x3_s2_0_split\r\nI1008 11:27:25.526620 11844 net.cpp:406] pool3/3x3_s2_pool3/3x3_s2_0_split <- pool3/3x3_s2\r\nI1008 11:27:25.526620 11844 net.cpp:380] pool3/3x3_s2_pool3/3x3_s2_0_split -> pool3/3x3_s2_pool3/3x3_s2_0_split_0\r\nI1008 11:27:25.526620 11844 net.cpp:380] pool3/3x3_s2_pool3/3x3_s2_0_split -> pool3/3x3_s2_pool3/3x3_s2_0_split_1\r\nI1008 11:27:25.526620 11844 net.cpp:380] pool3/3x3_s2_pool3/3x3_s2_0_split -> pool3/3x3_s2_pool3/3x3_s2_0_split_2\r\nI1008 11:27:25.526620 11844 net.cpp:380] pool3/3x3_s2_pool3/3x3_s2_0_split -> pool3/3x3_s2_pool3/3x3_s2_0_split_3\r\nI1008 11:27:25.526620 11844 net.cpp:122] Setting up pool3/3x3_s2_pool3/3x3_s2_0_split\r\nI1008 11:27:25.526620 11844 net.cpp:129] Top shape: 4 480 14 14 (376320)\r\nI1008 11:27:25.526620 11844 net.cpp:129] Top shape: 4 480 14 14 (376320)\r\nI1008 11:27:25.526620 11844 net.cpp:129] Top shape: 4 480 14 14 (376320)\r\nI1008 11:27:25.526620 11844 net.cpp:129] Top shape: 4 480 14 14 (376320)\r\nI1008 11:27:25.526620 11844 net.cpp:137] Memory required for data: 142399552\r\nI1008 11:27:25.526620 11844 layer_factory.hpp:77] Creating layer inception_4a/1x1\r\nI1008 11:27:25.526620 11844 net.cpp:84] Creating Layer inception_4a/1x1\r\nI1008 11:27:25.526620 11844 net.cpp:406] inception_4a/1x1 <- pool3/3x3_s2_pool3/3x3_s2_0_split_0\r\nI1008 11:27:25.526620 11844 net.cpp:380] inception_4a/1x1 -> inception_4a/1x1\r\nI1008 11:27:25.528861 11844 net.cpp:122] Setting up inception_4a/1x1\r\nI1008 11:27:25.528861 11844 net.cpp:129] Top shape: 4 192 14 14 (150528)\r\nI1008 11:27:25.528861 11844 net.cpp:137] Memory required for data: 143001664\r\nI1008 11:27:25.528861 11844 layer_factory.hpp:77] Creating layer inception_4a/relu_1x1\r\nI1008 11:27:25.528861 11844 net.cpp:84] Creating Layer inception_4a/relu_1x1\r\nI1008 11:27:25.528861 11844 net.cpp:406] inception_4a/relu_1x1 <- inception_4a/1x1\r\nI1008 11:27:25.528861 11844 net.cpp:367] inception_4a/relu_1x1 -> inception_4a/1x1 (in-place)\r\nI1008 11:27:25.528861 11844 net.cpp:122] Setting up inception_4a/relu_1x1\r\nI1008 11:27:25.528861 11844 net.cpp:129] Top shape: 4 192 14 14 (150528)\r\nI1008 11:27:25.528861 11844 net.cpp:137] Memory required for data: 143603776\r\nI1008 11:27:25.528861 11844 layer_factory.hpp:77] Creating layer inception_4a/3x3_reduce\r\nI1008 11:27:25.528861 11844 net.cpp:84] Creating Layer inception_4a/3x3_reduce\r\nI1008 11:27:25.528861 11844 net.cpp:406] inception_4a/3x3_reduce <- pool3/3x3_s2_pool3/3x3_s2_0_split_1\r\nI1008 11:27:25.528861 11844 net.cpp:380] inception_4a/3x3_reduce -> inception_4a/3x3_reduce\r\nI1008 11:27:25.529857 11844 net.cpp:122] Setting up inception_4a/3x3_reduce\r\nI1008 11:27:25.530014 11844 net.cpp:129] Top shape: 4 96 14 14 (75264)\r\nI1008 11:27:25.530014 11844 net.cpp:137] Memory required for data: 143904832\r\nI1008 11:27:25.530014 11844 layer_factory.hpp:77] Creating layer inception_4a/relu_3x3_reduce\r\nI1008 11:27:25.530014 11844 net.cpp:84] Creating Layer inception_4a/relu_3x3_reduce\r\nI1008 11:27:25.530014 11844 net.cpp:406] inception_4a/relu_3x3_reduce <- inception_4a/3x3_reduce\r\nI1008 11:27:25.530014 11844 net.cpp:367] inception_4a/relu_3x3_reduce -> inception_4a/3x3_reduce (in-place)\r\nI1008 11:27:25.530014 11844 net.cpp:122] Setting up inception_4a/relu_3x3_reduce\r\nI1008 11:27:25.530014 11844 net.cpp:129] Top shape: 4 96 14 14 (75264)\r\nI1008 11:27:25.530014 11844 net.cpp:137] Memory required for data: 144205888\r\nI1008 11:27:25.530014 11844 layer_factory.hpp:77] Creating layer inception_4a/3x3\r\nI1008 11:27:25.530014 11844 net.cpp:84] Creating Layer inception_4a/3x3\r\nI1008 11:27:25.530014 11844 net.cpp:406] inception_4a/3x3 <- inception_4a/3x3_reduce\r\nI1008 11:27:25.530014 11844 net.cpp:380] inception_4a/3x3 -> inception_4a/3x3\r\nI1008 11:27:25.531010 11844 net.cpp:122] Setting up inception_4a/3x3\r\nI1008 11:27:25.531010 11844 net.cpp:129] Top shape: 4 208 14 14 (163072)\r\nI1008 11:27:25.531010 11844 net.cpp:137] Memory required for data: 144858176\r\nI1008 11:27:25.533253 11844 layer_factory.hpp:77] Creating layer inception_4a/relu_3x3\r\nI1008 11:27:25.533253 11844 net.cpp:84] Creating Layer inception_4a/relu_3x3\r\nI1008 11:27:25.533253 11844 net.cpp:406] inception_4a/relu_3x3 <- inception_4a/3x3\r\nI1008 11:27:25.533253 11844 net.cpp:367] inception_4a/relu_3x3 -> inception_4a/3x3 (in-place)\r\nI1008 11:27:25.533253 11844 net.cpp:122] Setting up inception_4a/relu_3x3\r\nI1008 11:27:25.533253 11844 net.cpp:129] Top shape: 4 208 14 14 (163072)\r\nI1008 11:27:25.533253 11844 net.cpp:137] Memory required for data: 145510464\r\nI1008 11:27:25.533253 11844 layer_factory.hpp:77] Creating layer inception_4a/5x5_reduce\r\nI1008 11:27:25.533253 11844 net.cpp:84] Creating Layer inception_4a/5x5_reduce\r\nI1008 11:27:25.533253 11844 net.cpp:406] inception_4a/5x5_reduce <- pool3/3x3_s2_pool3/3x3_s2_0_split_2\r\nI1008 11:27:25.533253 11844 net.cpp:380] inception_4a/5x5_reduce -> inception_4a/5x5_reduce\r\nI1008 11:27:25.533253 11844 net.cpp:122] Setting up inception_4a/5x5_reduce\r\nI1008 11:27:25.533253 11844 net.cpp:129] Top shape: 4 16 14 14 (12544)\r\nI1008 11:27:25.533253 11844 net.cpp:137] Memory required for data: 145560640\r\nI1008 11:27:25.533253 11844 layer_factory.hpp:77] Creating layer inception_4a/relu_5x5_reduce\r\nI1008 11:27:25.533253 11844 net.cpp:84] Creating Layer inception_4a/relu_5x5_reduce\r\nI1008 11:27:25.533253 11844 net.cpp:406] inception_4a/relu_5x5_reduce <- inception_4a/5x5_reduce\r\nI1008 11:27:25.533253 11844 net.cpp:367] inception_4a/relu_5x5_reduce -> inception_4a/5x5_reduce (in-place)\r\nI1008 11:27:25.533253 11844 net.cpp:122] Setting up inception_4a/relu_5x5_reduce\r\nI1008 11:27:25.533253 11844 net.cpp:129] Top shape: 4 16 14 14 (12544)\r\nI1008 11:27:25.533253 11844 net.cpp:137] Memory required for data: 145610816\r\nI1008 11:27:25.533253 11844 layer_factory.hpp:77] Creating layer inception_4a/5x5\r\nI1008 11:27:25.533253 11844 net.cpp:84] Creating Layer inception_4a/5x5\r\nI1008 11:27:25.533253 11844 net.cpp:406] inception_4a/5x5 <- inception_4a/5x5_reduce\r\nI1008 11:27:25.533253 11844 net.cpp:380] inception_4a/5x5 -> inception_4a/5x5\r\nI1008 11:27:25.534251 11844 net.cpp:122] Setting up inception_4a/5x5\r\nI1008 11:27:25.534431 11844 net.cpp:129] Top shape: 4 48 14 14 (37632)\r\nI1008 11:27:25.534431 11844 net.cpp:137] Memory required for data: 145761344\r\nI1008 11:27:25.534431 11844 layer_factory.hpp:77] Creating layer inception_4a/relu_5x5\r\nI1008 11:27:25.534431 11844 net.cpp:84] Creating Layer inception_4a/relu_5x5\r\nI1008 11:27:25.534431 11844 net.cpp:406] inception_4a/relu_5x5 <- inception_4a/5x5\r\nI1008 11:27:25.534431 11844 net.cpp:367] inception_4a/relu_5x5 -> inception_4a/5x5 (in-place)\r\nI1008 11:27:25.534431 11844 net.cpp:122] Setting up inception_4a/relu_5x5\r\nI1008 11:27:25.534431 11844 net.cpp:129] Top shape: 4 48 14 14 (37632)\r\nI1008 11:27:25.534431 11844 net.cpp:137] Memory required for data: 145911872\r\nI1008 11:27:25.534431 11844 layer_factory.hpp:77] Creating layer inception_4a/pool\r\nI1008 11:27:25.534431 11844 net.cpp:84] Creating Layer inception_4a/pool\r\nI1008 11:27:25.534431 11844 net.cpp:406] inception_4a/pool <- pool3/3x3_s2_pool3/3x3_s2_0_split_3\r\nI1008 11:27:25.534431 11844 net.cpp:380] inception_4a/pool -> inception_4a/pool\r\nI1008 11:27:25.534431 11844 net.cpp:122] Setting up inception_4a/pool\r\nI1008 11:27:25.534431 11844 net.cpp:129] Top shape: 4 480 14 14 (376320)\r\nI1008 11:27:25.534431 11844 net.cpp:137] Memory required for data: 147417152\r\nI1008 11:27:25.534431 11844 layer_factory.hpp:77] Creating layer inception_4a/pool_proj\r\nI1008 11:27:25.534431 11844 net.cpp:84] Creating Layer inception_4a/pool_proj\r\nI1008 11:27:25.534431 11844 net.cpp:406] inception_4a/pool_proj <- inception_4a/pool\r\nI1008 11:27:25.534431 11844 net.cpp:380] inception_4a/pool_proj -> inception_4a/pool_proj\r\nI1008 11:27:25.535429 11844 net.cpp:122] Setting up inception_4a/pool_proj\r\nI1008 11:27:25.535543 11844 net.cpp:129] Top shape: 4 64 14 14 (50176)\r\nI1008 11:27:25.535543 11844 net.cpp:137] Memory required for data: 147617856\r\nI1008 11:27:25.535543 11844 layer_factory.hpp:77] Creating layer inception_4a/relu_pool_proj\r\nI1008 11:27:25.535543 11844 net.cpp:84] Creating Layer inception_4a/relu_pool_proj\r\nI1008 11:27:25.535543 11844 net.cpp:406] inception_4a/relu_pool_proj <- inception_4a/pool_proj\r\nI1008 11:27:25.535543 11844 net.cpp:367] inception_4a/relu_pool_proj -> inception_4a/pool_proj (in-place)\r\nI1008 11:27:25.535543 11844 net.cpp:122] Setting up inception_4a/relu_pool_proj\r\nI1008 11:27:25.535543 11844 net.cpp:129] Top shape: 4 64 14 14 (50176)\r\nI1008 11:27:25.535543 11844 net.cpp:137] Memory required for data: 147818560\r\nI1008 11:27:25.535543 11844 layer_factory.hpp:77] Creating layer inception_4a/output\r\nI1008 11:27:25.535543 11844 net.cpp:84] Creating Layer inception_4a/output\r\nI1008 11:27:25.535543 11844 net.cpp:406] inception_4a/output <- inception_4a/1x1\r\nI1008 11:27:25.535543 11844 net.cpp:406] inception_4a/output <- inception_4a/3x3\r\nI1008 11:27:25.535543 11844 net.cpp:406] inception_4a/output <- inception_4a/5x5\r\nI1008 11:27:25.535543 11844 net.cpp:406] inception_4a/output <- inception_4a/pool_proj\r\nI1008 11:27:25.535543 11844 net.cpp:380] inception_4a/output -> inception_4a/output\r\nI1008 11:27:25.535543 11844 net.cpp:122] Setting up inception_4a/output\r\nI1008 11:27:25.535543 11844 net.cpp:129] Top shape: 4 512 14 14 (401408)\r\nI1008 11:27:25.535543 11844 net.cpp:137] Memory required for data: 149424192\r\nI1008 11:27:25.535543 11844 layer_factory.hpp:77] Creating layer inception_4a/output_inception_4a/output_0_split\r\nI1008 11:27:25.535543 11844 net.cpp:84] Creating Layer inception_4a/output_inception_4a/output_0_split\r\nI1008 11:27:25.535543 11844 net.cpp:406] inception_4a/output_inception_4a/output_0_split <- inception_4a/output\r\nI1008 11:27:25.535543 11844 net.cpp:380] inception_4a/output_inception_4a/output_0_split -> inception_4a/output_inception_4a/output_0_split_0\r\nI1008 11:27:25.535543 11844 net.cpp:380] inception_4a/output_inception_4a/output_0_split -> inception_4a/output_inception_4a/output_0_split_1\r\nI1008 11:27:25.535543 11844 net.cpp:380] inception_4a/output_inception_4a/output_0_split -> inception_4a/output_inception_4a/output_0_split_2\r\nI1008 11:27:25.535543 11844 net.cpp:380] inception_4a/output_inception_4a/output_0_split -> inception_4a/output_inception_4a/output_0_split_3\r\nI1008 11:27:25.535543 11844 net.cpp:380] inception_4a/output_inception_4a/output_0_split -> inception_4a/output_inception_4a/output_0_split_4\r\nI1008 11:27:25.535543 11844 net.cpp:122] Setting up inception_4a/output_inception_4a/output_0_split\r\nI1008 11:27:25.535543 11844 net.cpp:129] Top shape: 4 512 14 14 (401408)\r\nI1008 11:27:25.535543 11844 net.cpp:129] Top shape: 4 512 14 14 (401408)\r\nI1008 11:27:25.535543 11844 net.cpp:129] Top shape: 4 512 14 14 (401408)\r\nI1008 11:27:25.535543 11844 net.cpp:129] Top shape: 4 512 14 14 (401408)\r\nI1008 11:27:25.535543 11844 net.cpp:129] Top shape: 4 512 14 14 (401408)\r\nI1008 11:27:25.535543 11844 net.cpp:137] Memory required for data: 157452352\r\nI1008 11:27:25.535543 11844 layer_factory.hpp:77] Creating layer loss1/ave_pool\r\nI1008 11:27:25.535543 11844 net.cpp:84] Creating Layer loss1/ave_pool\r\nI1008 11:27:25.536541 11844 net.cpp:406] loss1/ave_pool <- inception_4a/output_inception_4a/output_0_split_0\r\nI1008 11:27:25.536541 11844 net.cpp:380] loss1/ave_pool -> loss1/ave_pool\r\nI1008 11:27:25.536579 11844 net.cpp:122] Setting up loss1/ave_pool\r\nI1008 11:27:25.536579 11844 net.cpp:129] Top shape: 4 512 4 4 (32768)\r\nI1008 11:27:25.536579 11844 net.cpp:137] Memory required for data: 157583424\r\nI1008 11:27:25.536579 11844 layer_factory.hpp:77] Creating layer loss1/conv\r\nI1008 11:27:25.536579 11844 net.cpp:84] Creating Layer loss1/conv\r\nI1008 11:27:25.536579 11844 net.cpp:406] loss1/conv <- loss1/ave_pool\r\nI1008 11:27:25.536579 11844 net.cpp:380] loss1/conv -> loss1/conv\r\nI1008 11:27:25.537576 11844 net.cpp:122] Setting up loss1/conv\r\nI1008 11:27:25.537654 11844 net.cpp:129] Top shape: 4 128 4 4 (8192)\r\nI1008 11:27:25.537654 11844 net.cpp:137] Memory required for data: 157616192\r\nI1008 11:27:25.537654 11844 layer_factory.hpp:77] Creating layer loss1/relu_conv\r\nI1008 11:27:25.537654 11844 net.cpp:84] Creating Layer loss1/relu_conv\r\nI1008 11:27:25.537654 11844 net.cpp:406] loss1/relu_conv <- loss1/conv\r\nI1008 11:27:25.537654 11844 net.cpp:367] loss1/relu_conv -> loss1/conv (in-place)\r\nI1008 11:27:25.537654 11844 net.cpp:122] Setting up loss1/relu_conv\r\nI1008 11:27:25.537654 11844 net.cpp:129] Top shape: 4 128 4 4 (8192)\r\nI1008 11:27:25.537654 11844 net.cpp:137] Memory required for data: 157648960\r\nI1008 11:27:25.537654 11844 layer_factory.hpp:77] Creating layer loss1/fc\r\nI1008 11:27:25.537654 11844 net.cpp:84] Creating Layer loss1/fc\r\nI1008 11:27:25.537654 11844 net.cpp:406] loss1/fc <- loss1/conv\r\nI1008 11:27:25.537654 11844 net.cpp:380] loss1/fc -> loss1/fc\r\nI1008 11:27:25.562117 11844 net.cpp:122] Setting up loss1/fc\r\nI1008 11:27:25.562117 11844 net.cpp:129] Top shape: 4 1024 (4096)\r\nI1008 11:27:25.562117 11844 net.cpp:137] Memory required for data: 157665344\r\nI1008 11:27:25.562117 11844 layer_factory.hpp:77] Creating layer loss1/relu_fc\r\nI1008 11:27:25.571279 11844 net.cpp:84] Creating Layer loss1/relu_fc\r\nI1008 11:27:25.571279 11844 net.cpp:406] loss1/relu_fc <- loss1/fc\r\nI1008 11:27:25.571279 11844 net.cpp:367] loss1/relu_fc -> loss1/fc (in-place)\r\nI1008 11:27:25.571279 11844 net.cpp:122] Setting up loss1/relu_fc\r\nI1008 11:27:25.571279 11844 net.cpp:129] Top shape: 4 1024 (4096)\r\nI1008 11:27:25.571279 11844 net.cpp:137] Memory required for data: 157681728\r\nI1008 11:27:25.571279 11844 layer_factory.hpp:77] Creating layer loss1/drop_fc\r\nI1008 11:27:25.571279 11844 net.cpp:84] Creating Layer loss1/drop_fc\r\nI1008 11:27:25.571279 11844 net.cpp:406] loss1/drop_fc <- loss1/fc\r\nI1008 11:27:25.571279 11844 net.cpp:367] loss1/drop_fc -> loss1/fc (in-place)\r\nI1008 11:27:25.571279 11844 net.cpp:122] Setting up loss1/drop_fc\r\nI1008 11:27:25.571279 11844 net.cpp:129] Top shape: 4 1024 (4096)\r\nI1008 11:27:25.571279 11844 net.cpp:137] Memory required for data: 157698112\r\nI1008 11:27:25.571279 11844 layer_factory.hpp:77] Creating layer loss1/SLclassifier\r\nI1008 11:27:25.571279 11844 net.cpp:84] Creating Layer loss1/SLclassifier\r\nI1008 11:27:25.571279 11844 net.cpp:406] loss1/SLclassifier <- loss1/fc\r\nI1008 11:27:25.571279 11844 net.cpp:380] loss1/SLclassifier -> loss1/SLclassifier\r\nI1008 11:27:25.571279 11844 net.cpp:122] Setting up loss1/SLclassifier\r\nI1008 11:27:25.571279 11844 net.cpp:129] Top shape: 4 7 (28)\r\nI1008 11:27:25.571279 11844 net.cpp:137] Memory required for data: 157698224\r\nI1008 11:27:25.571279 11844 layer_factory.hpp:77] Creating layer loss1/loss\r\nI1008 11:27:25.572273 11844 net.cpp:84] Creating Layer loss1/loss\r\nI1008 11:27:25.572273 11844 net.cpp:406] loss1/loss <- loss1/SLclassifier\r\nI1008 11:27:25.572273 11844 net.cpp:406] loss1/loss <- label_data_1_split_0\r\nI1008 11:27:25.572273 11844 net.cpp:380] loss1/loss -> loss1/loss1\r\nI1008 11:27:25.572273 11844 layer_factory.hpp:77] Creating layer loss1/loss\r\nI1008 11:27:25.572273 11844 net.cpp:122] Setting up loss1/loss\r\nI1008 11:27:25.572273 11844 net.cpp:129] Top shape: (1)\r\nI1008 11:27:25.572273 11844 net.cpp:132]     with loss weight 0.3\r\nI1008 11:27:25.572273 11844 net.cpp:137] Memory required for data: 157698228\r\nI1008 11:27:25.572273 11844 layer_factory.hpp:77] Creating layer inception_4b/1x1\r\nI1008 11:27:25.572273 11844 net.cpp:84] Creating Layer inception_4b/1x1\r\nI1008 11:27:25.572273 11844 net.cpp:406] inception_4b/1x1 <- inception_4a/output_inception_4a/output_0_split_1\r\nI1008 11:27:25.572273 11844 net.cpp:380] inception_4b/1x1 -> inception_4b/1x1\r\nI1008 11:27:25.574268 11844 net.cpp:122] Setting up inception_4b/1x1\r\nI1008 11:27:25.574268 11844 net.cpp:129] Top shape: 4 160 14 14 (125440)\r\nI1008 11:27:25.574268 11844 net.cpp:137] Memory required for data: 158199988\r\nI1008 11:27:25.574268 11844 layer_factory.hpp:77] Creating layer inception_4b/relu_1x1\r\nI1008 11:27:25.574268 11844 net.cpp:84] Creating Layer inception_4b/relu_1x1\r\nI1008 11:27:25.574268 11844 net.cpp:406] inception_4b/relu_1x1 <- inception_4b/1x1\r\nI1008 11:27:25.574268 11844 net.cpp:367] inception_4b/relu_1x1 -> inception_4b/1x1 (in-place)\r\nI1008 11:27:25.574870 11844 net.cpp:122] Setting up inception_4b/relu_1x1\r\nI1008 11:27:25.574870 11844 net.cpp:129] Top shape: 4 160 14 14 (125440)\r\nI1008 11:27:25.574870 11844 net.cpp:137] Memory required for data: 158701748\r\nI1008 11:27:25.574870 11844 layer_factory.hpp:77] Creating layer inception_4b/3x3_reduce\r\nI1008 11:27:25.574870 11844 net.cpp:84] Creating Layer inception_4b/3x3_reduce\r\nI1008 11:27:25.574870 11844 net.cpp:406] inception_4b/3x3_reduce <- inception_4a/output_inception_4a/output_0_split_2\r\nI1008 11:27:25.574870 11844 net.cpp:380] inception_4b/3x3_reduce -> inception_4b/3x3_reduce\r\nI1008 11:27:25.575867 11844 net.cpp:122] Setting up inception_4b/3x3_reduce\r\nI1008 11:27:25.576043 11844 net.cpp:129] Top shape: 4 112 14 14 (87808)\r\nI1008 11:27:25.576043 11844 net.cpp:137] Memory required for data: 159052980\r\nI1008 11:27:25.576043 11844 layer_factory.hpp:77] Creating layer inception_4b/relu_3x3_reduce\r\nI1008 11:27:25.576043 11844 net.cpp:84] Creating Layer inception_4b/relu_3x3_reduce\r\nI1008 11:27:25.576043 11844 net.cpp:406] inception_4b/relu_3x3_reduce <- inception_4b/3x3_reduce\r\nI1008 11:27:25.576043 11844 net.cpp:367] inception_4b/relu_3x3_reduce -> inception_4b/3x3_reduce (in-place)\r\nI1008 11:27:25.576043 11844 net.cpp:122] Setting up inception_4b/relu_3x3_reduce\r\nI1008 11:27:25.576043 11844 net.cpp:129] Top shape: 4 112 14 14 (87808)\r\nI1008 11:27:25.576043 11844 net.cpp:137] Memory required for data: 159404212\r\nI1008 11:27:25.576043 11844 layer_factory.hpp:77] Creating layer inception_4b/3x3\r\nI1008 11:27:25.576043 11844 net.cpp:84] Creating Layer inception_4b/3x3\r\nI1008 11:27:25.576043 11844 net.cpp:406] inception_4b/3x3 <- inception_4b/3x3_reduce\r\nI1008 11:27:25.576043 11844 net.cpp:380] inception_4b/3x3 -> inception_4b/3x3\r\nI1008 11:27:25.579661 11844 net.cpp:122] Setting up inception_4b/3x3\r\nI1008 11:27:25.579661 11844 net.cpp:129] Top shape: 4 224 14 14 (175616)\r\nI1008 11:27:25.579661 11844 net.cpp:137] Memory required for data: 160106676\r\nI1008 11:27:25.579661 11844 layer_factory.hpp:77] Creating layer inception_4b/relu_3x3\r\nI1008 11:27:25.579661 11844 net.cpp:84] Creating Layer inception_4b/relu_3x3\r\nI1008 11:27:25.579661 11844 net.cpp:406] inception_4b/relu_3x3 <- inception_4b/3x3\r\nI1008 11:27:25.579661 11844 net.cpp:367] inception_4b/relu_3x3 -> inception_4b/3x3 (in-place)\r\nI1008 11:27:25.579661 11844 net.cpp:122] Setting up inception_4b/relu_3x3\r\nI1008 11:27:25.579661 11844 net.cpp:129] Top shape: 4 224 14 14 (175616)\r\nI1008 11:27:25.579661 11844 net.cpp:137] Memory required for data: 160809140\r\nI1008 11:27:25.579661 11844 layer_factory.hpp:77] Creating layer inception_4b/5x5_reduce\r\nI1008 11:27:25.579661 11844 net.cpp:84] Creating Layer inception_4b/5x5_reduce\r\nI1008 11:27:25.580657 11844 net.cpp:406] inception_4b/5x5_reduce <- inception_4a/output_inception_4a/output_0_split_3\r\nI1008 11:27:25.580657 11844 net.cpp:380] inception_4b/5x5_reduce -> inception_4b/5x5_reduce\r\nI1008 11:27:25.580657 11844 net.cpp:122] Setting up inception_4b/5x5_reduce\r\nI1008 11:27:25.580657 11844 net.cpp:129] Top shape: 4 24 14 14 (18816)\r\nI1008 11:27:25.580657 11844 net.cpp:137] Memory required for data: 160884404\r\nI1008 11:27:25.580657 11844 layer_factory.hpp:77] Creating layer inception_4b/relu_5x5_reduce\r\nI1008 11:27:25.580657 11844 net.cpp:84] Creating Layer inception_4b/relu_5x5_reduce\r\nI1008 11:27:25.580657 11844 net.cpp:406] inception_4b/relu_5x5_reduce <- inception_4b/5x5_reduce\r\nI1008 11:27:25.580657 11844 net.cpp:367] inception_4b/relu_5x5_reduce -> inception_4b/5x5_reduce (in-place)\r\nI1008 11:27:25.580657 11844 net.cpp:122] Setting up inception_4b/relu_5x5_reduce\r\nI1008 11:27:25.581322 11844 net.cpp:129] Top shape: 4 24 14 14 (18816)\r\nI1008 11:27:25.581322 11844 net.cpp:137] Memory required for data: 160959668\r\nI1008 11:27:25.581322 11844 layer_factory.hpp:77] Creating layer inception_4b/5x5\r\nI1008 11:27:25.581322 11844 net.cpp:84] Creating Layer inception_4b/5x5\r\nI1008 11:27:25.581322 11844 net.cpp:406] inception_4b/5x5 <- inception_4b/5x5_reduce\r\nI1008 11:27:25.581322 11844 net.cpp:380] inception_4b/5x5 -> inception_4b/5x5\r\nI1008 11:27:25.581322 11844 net.cpp:122] Setting up inception_4b/5x5\r\nI1008 11:27:25.581322 11844 net.cpp:129] Top shape: 4 64 14 14 (50176)\r\nI1008 11:27:25.582319 11844 net.cpp:137] Memory required for data: 161160372\r\nI1008 11:27:25.582368 11844 layer_factory.hpp:77] Creating layer inception_4b/relu_5x5\r\nI1008 11:27:25.582368 11844 net.cpp:84] Creating Layer inception_4b/relu_5x5\r\nI1008 11:27:25.582368 11844 net.cpp:406] inception_4b/relu_5x5 <- inception_4b/5x5\r\nI1008 11:27:25.582368 11844 net.cpp:367] inception_4b/relu_5x5 -> inception_4b/5x5 (in-place)\r\nI1008 11:27:25.582368 11844 net.cpp:122] Setting up inception_4b/relu_5x5\r\nI1008 11:27:25.582368 11844 net.cpp:129] Top shape: 4 64 14 14 (50176)\r\nI1008 11:27:25.582368 11844 net.cpp:137] Memory required for data: 161361076\r\nI1008 11:27:25.582368 11844 layer_factory.hpp:77] Creating layer inception_4b/pool\r\nI1008 11:27:25.582368 11844 net.cpp:84] Creating Layer inception_4b/pool\r\nI1008 11:27:25.582368 11844 net.cpp:406] inception_4b/pool <- inception_4a/output_inception_4a/output_0_split_4\r\nI1008 11:27:25.582368 11844 net.cpp:380] inception_4b/pool -> inception_4b/pool\r\nI1008 11:27:25.582368 11844 net.cpp:122] Setting up inception_4b/pool\r\nI1008 11:27:25.582368 11844 net.cpp:129] Top shape: 4 512 14 14 (401408)\r\nI1008 11:27:25.582368 11844 net.cpp:137] Memory required for data: 162966708\r\nI1008 11:27:25.582368 11844 layer_factory.hpp:77] Creating layer inception_4b/pool_proj\r\nI1008 11:27:25.582368 11844 net.cpp:84] Creating Layer inception_4b/pool_proj\r\nI1008 11:27:25.582368 11844 net.cpp:406] inception_4b/pool_proj <- inception_4b/pool\r\nI1008 11:27:25.582368 11844 net.cpp:380] inception_4b/pool_proj -> inception_4b/pool_proj\r\nI1008 11:27:25.583365 11844 net.cpp:122] Setting up inception_4b/pool_proj\r\nI1008 11:27:25.583365 11844 net.cpp:129] Top shape: 4 64 14 14 (50176)\r\nI1008 11:27:25.583365 11844 net.cpp:137] Memory required for data: 163167412\r\nI1008 11:27:25.583365 11844 layer_factory.hpp:77] Creating layer inception_4b/relu_pool_proj\r\nI1008 11:27:25.583365 11844 net.cpp:84] Creating Layer inception_4b/relu_pool_proj\r\nI1008 11:27:25.583750 11844 net.cpp:406] inception_4b/relu_pool_proj <- inception_4b/pool_proj\r\nI1008 11:27:25.583750 11844 net.cpp:367] inception_4b/relu_pool_proj -> inception_4b/pool_proj (in-place)\r\nI1008 11:27:25.583750 11844 net.cpp:122] Setting up inception_4b/relu_pool_proj\r\nI1008 11:27:25.583750 11844 net.cpp:129] Top shape: 4 64 14 14 (50176)\r\nI1008 11:27:25.583750 11844 net.cpp:137] Memory required for data: 163368116\r\nI1008 11:27:25.583750 11844 layer_factory.hpp:77] Creating layer inception_4b/output\r\nI1008 11:27:25.583750 11844 net.cpp:84] Creating Layer inception_4b/output\r\nI1008 11:27:25.583750 11844 net.cpp:406] inception_4b/output <- inception_4b/1x1\r\nI1008 11:27:25.583750 11844 net.cpp:406] inception_4b/output <- inception_4b/3x3\r\nI1008 11:27:25.583750 11844 net.cpp:406] inception_4b/output <- inception_4b/5x5\r\nI1008 11:27:25.583750 11844 net.cpp:406] inception_4b/output <- inception_4b/pool_proj\r\nI1008 11:27:25.583750 11844 net.cpp:380] inception_4b/output -> inception_4b/output\r\nI1008 11:27:25.583750 11844 net.cpp:122] Setting up inception_4b/output\r\nI1008 11:27:25.583750 11844 net.cpp:129] Top shape: 4 512 14 14 (401408)\r\nI1008 11:27:25.583750 11844 net.cpp:137] Memory required for data: 164973748\r\nI1008 11:27:25.583750 11844 layer_factory.hpp:77] Creating layer inception_4b/output_inception_4b/output_0_split\r\nI1008 11:27:25.583750 11844 net.cpp:84] Creating Layer inception_4b/output_inception_4b/output_0_split\r\nI1008 11:27:25.583750 11844 net.cpp:406] inception_4b/output_inception_4b/output_0_split <- inception_4b/output\r\nI1008 11:27:25.583750 11844 net.cpp:380] inception_4b/output_inception_4b/output_0_split -> inception_4b/output_inception_4b/output_0_split_0\r\nI1008 11:27:25.583750 11844 net.cpp:380] inception_4b/output_inception_4b/output_0_split -> inception_4b/output_inception_4b/output_0_split_1\r\nI1008 11:27:25.583750 11844 net.cpp:380] inception_4b/output_inception_4b/output_0_split -> inception_4b/output_inception_4b/output_0_split_2\r\nI1008 11:27:25.583750 11844 net.cpp:380] inception_4b/output_inception_4b/output_0_split -> inception_4b/output_inception_4b/output_0_split_3\r\nI1008 11:27:25.583750 11844 net.cpp:122] Setting up inception_4b/output_inception_4b/output_0_split\r\nI1008 11:27:25.584746 11844 net.cpp:129] Top shape: 4 512 14 14 (401408)\r\nI1008 11:27:25.584746 11844 net.cpp:129] Top shape: 4 512 14 14 (401408)\r\nI1008 11:27:25.584746 11844 net.cpp:129] Top shape: 4 512 14 14 (401408)\r\nI1008 11:27:25.584746 11844 net.cpp:129] Top shape: 4 512 14 14 (401408)\r\nI1008 11:27:25.584746 11844 net.cpp:137] Memory required for data: 171396276\r\nI1008 11:27:25.584746 11844 layer_factory.hpp:77] Creating layer inception_4c/1x1\r\nI1008 11:27:25.584746 11844 net.cpp:84] Creating Layer inception_4c/1x1\r\nI1008 11:27:25.584746 11844 net.cpp:406] inception_4c/1x1 <- inception_4b/output_inception_4b/output_0_split_0\r\nI1008 11:27:25.584746 11844 net.cpp:380] inception_4c/1x1 -> inception_4c/1x1\r\nI1008 11:27:25.584746 11844 net.cpp:122] Setting up inception_4c/1x1\r\nI1008 11:27:25.584746 11844 net.cpp:129] Top shape: 4 128 14 14 (100352)\r\nI1008 11:27:25.584746 11844 net.cpp:137] Memory required for data: 171797684\r\nI1008 11:27:25.584746 11844 layer_factory.hpp:77] Creating layer inception_4c/relu_1x1\r\nI1008 11:27:25.584746 11844 net.cpp:84] Creating Layer inception_4c/relu_1x1\r\nI1008 11:27:25.584746 11844 net.cpp:406] inception_4c/relu_1x1 <- inception_4c/1x1\r\nI1008 11:27:25.584746 11844 net.cpp:367] inception_4c/relu_1x1 -> inception_4c/1x1 (in-place)\r\nI1008 11:27:25.584746 11844 net.cpp:122] Setting up inception_4c/relu_1x1\r\nI1008 11:27:25.584746 11844 net.cpp:129] Top shape: 4 128 14 14 (100352)\r\nI1008 11:27:25.584746 11844 net.cpp:137] Memory required for data: 172199092\r\nI1008 11:27:25.584746 11844 layer_factory.hpp:77] Creating layer inception_4c/3x3_reduce\r\nI1008 11:27:25.584746 11844 net.cpp:84] Creating Layer inception_4c/3x3_reduce\r\nI1008 11:27:25.584746 11844 net.cpp:406] inception_4c/3x3_reduce <- inception_4b/output_inception_4b/output_0_split_1\r\nI1008 11:27:25.584746 11844 net.cpp:380] inception_4c/3x3_reduce -> inception_4c/3x3_reduce\r\nI1008 11:27:25.584746 11844 net.cpp:122] Setting up inception_4c/3x3_reduce\r\nI1008 11:27:25.584746 11844 net.cpp:129] Top shape: 4 128 14 14 (100352)\r\nI1008 11:27:25.584746 11844 net.cpp:137] Memory required for data: 172600500\r\nI1008 11:27:25.584746 11844 layer_factory.hpp:77] Creating layer inception_4c/relu_3x3_reduce\r\nI1008 11:27:25.584746 11844 net.cpp:84] Creating Layer inception_4c/relu_3x3_reduce\r\nI1008 11:27:25.584746 11844 net.cpp:406] inception_4c/relu_3x3_reduce <- inception_4c/3x3_reduce\r\nI1008 11:27:25.584746 11844 net.cpp:367] inception_4c/relu_3x3_reduce -> inception_4c/3x3_reduce (in-place)\r\nI1008 11:27:25.584746 11844 net.cpp:122] Setting up inception_4c/relu_3x3_reduce\r\nI1008 11:27:25.584746 11844 net.cpp:129] Top shape: 4 128 14 14 (100352)\r\nI1008 11:27:25.584746 11844 net.cpp:137] Memory required for data: 173001908\r\nI1008 11:27:25.584746 11844 layer_factory.hpp:77] Creating layer inception_4c/3x3\r\nI1008 11:27:25.589931 11844 net.cpp:84] Creating Layer inception_4c/3x3\r\nI1008 11:27:25.589931 11844 net.cpp:406] inception_4c/3x3 <- inception_4c/3x3_reduce\r\nI1008 11:27:25.589931 11844 net.cpp:380] inception_4c/3x3 -> inception_4c/3x3\r\nI1008 11:27:25.595118 11844 net.cpp:122] Setting up inception_4c/3x3\r\nI1008 11:27:25.596115 11844 net.cpp:129] Top shape: 4 256 14 14 (200704)\r\nI1008 11:27:25.596115 11844 net.cpp:137] Memory required for data: 173804724\r\nI1008 11:27:25.596252 11844 layer_factory.hpp:77] Creating layer inception_4c/relu_3x3\r\nI1008 11:27:25.596252 11844 net.cpp:84] Creating Layer inception_4c/relu_3x3\r\nI1008 11:27:25.596252 11844 net.cpp:406] inception_4c/relu_3x3 <- inception_4c/3x3\r\nI1008 11:27:25.596252 11844 net.cpp:367] inception_4c/relu_3x3 -> inception_4c/3x3 (in-place)\r\nI1008 11:27:25.596252 11844 net.cpp:122] Setting up inception_4c/relu_3x3\r\nI1008 11:27:25.596252 11844 net.cpp:129] Top shape: 4 256 14 14 (200704)\r\nI1008 11:27:25.596252 11844 net.cpp:137] Memory required for data: 174607540\r\nI1008 11:27:25.596252 11844 layer_factory.hpp:77] Creating layer inception_4c/5x5_reduce\r\nI1008 11:27:25.596252 11844 net.cpp:84] Creating Layer inception_4c/5x5_reduce\r\nI1008 11:27:25.596252 11844 net.cpp:406] inception_4c/5x5_reduce <- inception_4b/output_inception_4b/output_0_split_2\r\nI1008 11:27:25.596252 11844 net.cpp:380] inception_4c/5x5_reduce -> inception_4c/5x5_reduce\r\nI1008 11:27:25.596252 11844 net.cpp:122] Setting up inception_4c/5x5_reduce\r\nI1008 11:27:25.596252 11844 net.cpp:129] Top shape: 4 24 14 14 (18816)\r\nI1008 11:27:25.596252 11844 net.cpp:137] Memory required for data: 174682804\r\nI1008 11:27:25.596252 11844 layer_factory.hpp:77] Creating layer inception_4c/relu_5x5_reduce\r\nI1008 11:27:25.596252 11844 net.cpp:84] Creating Layer inception_4c/relu_5x5_reduce\r\nI1008 11:27:25.596252 11844 net.cpp:406] inception_4c/relu_5x5_reduce <- inception_4c/5x5_reduce\r\nI1008 11:27:25.597249 11844 net.cpp:367] inception_4c/relu_5x5_reduce -> inception_4c/5x5_reduce (in-place)\r\nI1008 11:27:25.597249 11844 net.cpp:122] Setting up inception_4c/relu_5x5_reduce\r\nI1008 11:27:25.597249 11844 net.cpp:129] Top shape: 4 24 14 14 (18816)\r\nI1008 11:27:25.597249 11844 net.cpp:137] Memory required for data: 174758068\r\nI1008 11:27:25.597249 11844 layer_factory.hpp:77] Creating layer inception_4c/5x5\r\nI1008 11:27:25.597249 11844 net.cpp:84] Creating Layer inception_4c/5x5\r\nI1008 11:27:25.597249 11844 net.cpp:406] inception_4c/5x5 <- inception_4c/5x5_reduce\r\nI1008 11:27:25.597249 11844 net.cpp:380] inception_4c/5x5 -> inception_4c/5x5\r\nI1008 11:27:25.598245 11844 net.cpp:122] Setting up inception_4c/5x5\r\nI1008 11:27:25.598245 11844 net.cpp:129] Top shape: 4 64 14 14 (50176)\r\nI1008 11:27:25.598245 11844 net.cpp:137] Memory required for data: 174958772\r\nI1008 11:27:25.598245 11844 layer_factory.hpp:77] Creating layer inception_4c/relu_5x5\r\nI1008 11:27:25.598245 11844 net.cpp:84] Creating Layer inception_4c/relu_5x5\r\nI1008 11:27:25.598245 11844 net.cpp:406] inception_4c/relu_5x5 <- inception_4c/5x5\r\nI1008 11:27:25.598245 11844 net.cpp:367] inception_4c/relu_5x5 -> inception_4c/5x5 (in-place)\r\nI1008 11:27:25.598245 11844 net.cpp:122] Setting up inception_4c/relu_5x5\r\nI1008 11:27:25.598886 11844 net.cpp:129] Top shape: 4 64 14 14 (50176)\r\nI1008 11:27:25.598886 11844 net.cpp:137] Memory required for data: 175159476\r\nI1008 11:27:25.598886 11844 layer_factory.hpp:77] Creating layer inception_4c/pool\r\nI1008 11:27:25.598886 11844 net.cpp:84] Creating Layer inception_4c/pool\r\nI1008 11:27:25.598886 11844 net.cpp:406] inception_4c/pool <- inception_4b/output_inception_4b/output_0_split_3\r\nI1008 11:27:25.598886 11844 net.cpp:380] inception_4c/pool -> inception_4c/pool\r\nI1008 11:27:25.598886 11844 net.cpp:122] Setting up inception_4c/pool\r\nI1008 11:27:25.598886 11844 net.cpp:129] Top shape: 4 512 14 14 (401408)\r\nI1008 11:27:25.598886 11844 net.cpp:137] Memory required for data: 176765108\r\nI1008 11:27:25.598886 11844 layer_factory.hpp:77] Creating layer inception_4c/pool_proj\r\nI1008 11:27:25.598886 11844 net.cpp:84] Creating Layer inception_4c/pool_proj\r\nI1008 11:27:25.598886 11844 net.cpp:406] inception_4c/pool_proj <- inception_4c/pool\r\nI1008 11:27:25.598886 11844 net.cpp:380] inception_4c/pool_proj -> inception_4c/pool_proj\r\nI1008 11:27:25.599882 11844 net.cpp:122] Setting up inception_4c/pool_proj\r\nI1008 11:27:25.599882 11844 net.cpp:129] Top shape: 4 64 14 14 (50176)\r\nI1008 11:27:25.599882 11844 net.cpp:137] Memory required for data: 176965812\r\nI1008 11:27:25.599882 11844 layer_factory.hpp:77] Creating layer inception_4c/relu_pool_proj\r\nI1008 11:27:25.599882 11844 net.cpp:84] Creating Layer inception_4c/relu_pool_proj\r\nI1008 11:27:25.599882 11844 net.cpp:406] inception_4c/relu_pool_proj <- inception_4c/pool_proj\r\nI1008 11:27:25.599882 11844 net.cpp:367] inception_4c/relu_pool_proj -> inception_4c/pool_proj (in-place)\r\nI1008 11:27:25.600636 11844 net.cpp:122] Setting up inception_4c/relu_pool_proj\r\nI1008 11:27:25.600636 11844 net.cpp:129] Top shape: 4 64 14 14 (50176)\r\nI1008 11:27:25.600636 11844 net.cpp:137] Memory required for data: 177166516\r\nI1008 11:27:25.600636 11844 layer_factory.hpp:77] Creating layer inception_4c/output\r\nI1008 11:27:25.600636 11844 net.cpp:84] Creating Layer inception_4c/output\r\nI1008 11:27:25.600636 11844 net.cpp:406] inception_4c/output <- inception_4c/1x1\r\nI1008 11:27:25.600636 11844 net.cpp:406] inception_4c/output <- inception_4c/3x3\r\nI1008 11:27:25.600636 11844 net.cpp:406] inception_4c/output <- inception_4c/5x5\r\nI1008 11:27:25.600636 11844 net.cpp:406] inception_4c/output <- inception_4c/pool_proj\r\nI1008 11:27:25.600636 11844 net.cpp:380] inception_4c/output -> inception_4c/output\r\nI1008 11:27:25.600636 11844 net.cpp:122] Setting up inception_4c/output\r\nI1008 11:27:25.600636 11844 net.cpp:129] Top shape: 4 512 14 14 (401408)\r\nI1008 11:27:25.600636 11844 net.cpp:137] Memory required for data: 178772148\r\nI1008 11:27:25.600636 11844 layer_factory.hpp:77] Creating layer inception_4c/output_inception_4c/output_0_split\r\nI1008 11:27:25.600636 11844 net.cpp:84] Creating Layer inception_4c/output_inception_4c/output_0_split\r\nI1008 11:27:25.600636 11844 net.cpp:406] inception_4c/output_inception_4c/output_0_split <- inception_4c/output\r\nI1008 11:27:25.600636 11844 net.cpp:380] inception_4c/output_inception_4c/output_0_split -> inception_4c/output_inception_4c/output_0_split_0\r\nI1008 11:27:25.600636 11844 net.cpp:380] inception_4c/output_inception_4c/output_0_split -> inception_4c/output_inception_4c/output_0_split_1\r\nI1008 11:27:25.601632 11844 net.cpp:380] inception_4c/output_inception_4c/output_0_split -> inception_4c/output_inception_4c/output_0_split_2\r\nI1008 11:27:25.601632 11844 net.cpp:380] inception_4c/output_inception_4c/output_0_split -> inception_4c/output_inception_4c/output_0_split_3\r\nI1008 11:27:25.601632 11844 net.cpp:122] Setting up inception_4c/output_inception_4c/output_0_split\r\nI1008 11:27:25.601632 11844 net.cpp:129] Top shape: 4 512 14 14 (401408)\r\nI1008 11:27:25.601632 11844 net.cpp:129] Top shape: 4 512 14 14 (401408)\r\nI1008 11:27:25.601632 11844 net.cpp:129] Top shape: 4 512 14 14 (401408)\r\nI1008 11:27:25.601632 11844 net.cpp:129] Top shape: 4 512 14 14 (401408)\r\nI1008 11:27:25.601632 11844 net.cpp:137] Memory required for data: 185194676\r\nI1008 11:27:25.601632 11844 layer_factory.hpp:77] Creating layer inception_4d/1x1\r\nI1008 11:27:25.601632 11844 net.cpp:84] Creating Layer inception_4d/1x1\r\nI1008 11:27:25.601632 11844 net.cpp:406] inception_4d/1x1 <- inception_4c/output_inception_4c/output_0_split_0\r\nI1008 11:27:25.601632 11844 net.cpp:380] inception_4d/1x1 -> inception_4d/1x1\r\nI1008 11:27:25.601632 11844 net.cpp:122] Setting up inception_4d/1x1\r\nI1008 11:27:25.603232 11844 net.cpp:129] Top shape: 4 112 14 14 (87808)\r\nI1008 11:27:25.603232 11844 net.cpp:137] Memory required for data: 185545908\r\nI1008 11:27:25.603232 11844 layer_factory.hpp:77] Creating layer inception_4d/relu_1x1\r\nI1008 11:27:25.603232 11844 net.cpp:84] Creating Layer inception_4d/relu_1x1\r\nI1008 11:27:25.603232 11844 net.cpp:406] inception_4d/relu_1x1 <- inception_4d/1x1\r\nI1008 11:27:25.603232 11844 net.cpp:367] inception_4d/relu_1x1 -> inception_4d/1x1 (in-place)\r\nI1008 11:27:25.603232 11844 net.cpp:122] Setting up inception_4d/relu_1x1\r\nI1008 11:27:25.603232 11844 net.cpp:129] Top shape: 4 112 14 14 (87808)\r\nI1008 11:27:25.603232 11844 net.cpp:137] Memory required for data: 185897140\r\nI1008 11:27:25.603232 11844 layer_factory.hpp:77] Creating layer inception_4d/3x3_reduce\r\nI1008 11:27:25.603232 11844 net.cpp:84] Creating Layer inception_4d/3x3_reduce\r\nI1008 11:27:25.603232 11844 net.cpp:406] inception_4d/3x3_reduce <- inception_4c/output_inception_4c/output_0_split_1\r\nI1008 11:27:25.603232 11844 net.cpp:380] inception_4d/3x3_reduce -> inception_4d/3x3_reduce\r\nI1008 11:27:25.604230 11844 net.cpp:122] Setting up inception_4d/3x3_reduce\r\nI1008 11:27:25.604939 11844 net.cpp:129] Top shape: 4 144 14 14 (112896)\r\nI1008 11:27:25.604939 11844 net.cpp:137] Memory required for data: 186348724\r\nI1008 11:27:25.604939 11844 layer_factory.hpp:77] Creating layer inception_4d/relu_3x3_reduce\r\nI1008 11:27:25.604939 11844 net.cpp:84] Creating Layer inception_4d/relu_3x3_reduce\r\nI1008 11:27:25.604939 11844 net.cpp:406] inception_4d/relu_3x3_reduce <- inception_4d/3x3_reduce\r\nI1008 11:27:25.604939 11844 net.cpp:367] inception_4d/relu_3x3_reduce -> inception_4d/3x3_reduce (in-place)\r\nI1008 11:27:25.604939 11844 net.cpp:122] Setting up inception_4d/relu_3x3_reduce\r\nI1008 11:27:25.604939 11844 net.cpp:129] Top shape: 4 144 14 14 (112896)\r\nI1008 11:27:25.604939 11844 net.cpp:137] Memory required for data: 186800308\r\nI1008 11:27:25.604939 11844 layer_factory.hpp:77] Creating layer inception_4d/3x3\r\nI1008 11:27:25.604939 11844 net.cpp:84] Creating Layer inception_4d/3x3\r\nI1008 11:27:25.604939 11844 net.cpp:406] inception_4d/3x3 <- inception_4d/3x3_reduce\r\nI1008 11:27:25.604939 11844 net.cpp:380] inception_4d/3x3 -> inception_4d/3x3\r\nI1008 11:27:25.608172 11844 net.cpp:122] Setting up inception_4d/3x3\r\nI1008 11:27:25.609724 11844 net.cpp:129] Top shape: 4 288 14 14 (225792)\r\nI1008 11:27:25.609724 11844 net.cpp:137] Memory required for data: 187703476\r\nI1008 11:27:25.609724 11844 layer_factory.hpp:77] Creating layer inception_4d/relu_3x3\r\nI1008 11:27:25.609724 11844 net.cpp:84] Creating Layer inception_4d/relu_3x3\r\nI1008 11:27:25.609724 11844 net.cpp:406] inception_4d/relu_3x3 <- inception_4d/3x3\r\nI1008 11:27:25.609724 11844 net.cpp:367] inception_4d/relu_3x3 -> inception_4d/3x3 (in-place)\r\nI1008 11:27:25.609724 11844 net.cpp:122] Setting up inception_4d/relu_3x3\r\nI1008 11:27:25.609724 11844 net.cpp:129] Top shape: 4 288 14 14 (225792)\r\nI1008 11:27:25.609724 11844 net.cpp:137] Memory required for data: 188606644\r\nI1008 11:27:25.609724 11844 layer_factory.hpp:77] Creating layer inception_4d/5x5_reduce\r\nI1008 11:27:25.609724 11844 net.cpp:84] Creating Layer inception_4d/5x5_reduce\r\nI1008 11:27:25.609724 11844 net.cpp:406] inception_4d/5x5_reduce <- inception_4c/output_inception_4c/output_0_split_2\r\nI1008 11:27:25.609724 11844 net.cpp:380] inception_4d/5x5_reduce -> inception_4d/5x5_reduce\r\nI1008 11:27:25.609724 11844 net.cpp:122] Setting up inception_4d/5x5_reduce\r\nI1008 11:27:25.609724 11844 net.cpp:129] Top shape: 4 32 14 14 (25088)\r\nI1008 11:27:25.609724 11844 net.cpp:137] Memory required for data: 188706996\r\nI1008 11:27:25.609724 11844 layer_factory.hpp:77] Creating layer inception_4d/relu_5x5_reduce\r\nI1008 11:27:25.609724 11844 net.cpp:84] Creating Layer inception_4d/relu_5x5_reduce\r\nI1008 11:27:25.609724 11844 net.cpp:406] inception_4d/relu_5x5_reduce <- inception_4d/5x5_reduce\r\nI1008 11:27:25.609724 11844 net.cpp:367] inception_4d/relu_5x5_reduce -> inception_4d/5x5_reduce (in-place)\r\nI1008 11:27:25.609724 11844 net.cpp:122] Setting up inception_4d/relu_5x5_reduce\r\nI1008 11:27:25.609724 11844 net.cpp:129] Top shape: 4 32 14 14 (25088)\r\nI1008 11:27:25.609724 11844 net.cpp:137] Memory required for data: 188807348\r\nI1008 11:27:25.609724 11844 layer_factory.hpp:77] Creating layer inception_4d/5x5\r\nI1008 11:27:25.609724 11844 net.cpp:84] Creating Layer inception_4d/5x5\r\nI1008 11:27:25.609724 11844 net.cpp:406] inception_4d/5x5 <- inception_4d/5x5_reduce\r\nI1008 11:27:25.610734 11844 net.cpp:380] inception_4d/5x5 -> inception_4d/5x5\r\nI1008 11:27:25.610734 11844 net.cpp:122] Setting up inception_4d/5x5\r\nI1008 11:27:25.610734 11844 net.cpp:129] Top shape: 4 64 14 14 (50176)\r\nI1008 11:27:25.610734 11844 net.cpp:137] Memory required for data: 189008052\r\nI1008 11:27:25.610734 11844 layer_factory.hpp:77] Creating layer inception_4d/relu_5x5\r\nI1008 11:27:25.610734 11844 net.cpp:84] Creating Layer inception_4d/relu_5x5\r\nI1008 11:27:25.610734 11844 net.cpp:406] inception_4d/relu_5x5 <- inception_4d/5x5\r\nI1008 11:27:25.610734 11844 net.cpp:367] inception_4d/relu_5x5 -> inception_4d/5x5 (in-place)\r\nI1008 11:27:25.610734 11844 net.cpp:122] Setting up inception_4d/relu_5x5\r\nI1008 11:27:25.610734 11844 net.cpp:129] Top shape: 4 64 14 14 (50176)\r\nI1008 11:27:25.610734 11844 net.cpp:137] Memory required for data: 189208756\r\nI1008 11:27:25.610734 11844 layer_factory.hpp:77] Creating layer inception_4d/pool\r\nI1008 11:27:25.610734 11844 net.cpp:84] Creating Layer inception_4d/pool\r\nI1008 11:27:25.610734 11844 net.cpp:406] inception_4d/pool <- inception_4c/output_inception_4c/output_0_split_3\r\nI1008 11:27:25.610734 11844 net.cpp:380] inception_4d/pool -> inception_4d/pool\r\nI1008 11:27:25.611732 11844 net.cpp:122] Setting up inception_4d/pool\r\nI1008 11:27:25.611776 11844 net.cpp:129] Top shape: 4 512 14 14 (401408)\r\nI1008 11:27:25.611776 11844 net.cpp:137] Memory required for data: 190814388\r\nI1008 11:27:25.611776 11844 layer_factory.hpp:77] Creating layer inception_4d/pool_proj\r\nI1008 11:27:25.611776 11844 net.cpp:84] Creating Layer inception_4d/pool_proj\r\nI1008 11:27:25.611776 11844 net.cpp:406] inception_4d/pool_proj <- inception_4d/pool\r\nI1008 11:27:25.611776 11844 net.cpp:380] inception_4d/pool_proj -> inception_4d/pool_proj\r\nI1008 11:27:25.611776 11844 net.cpp:122] Setting up inception_4d/pool_proj\r\nI1008 11:27:25.611776 11844 net.cpp:129] Top shape: 4 64 14 14 (50176)\r\nI1008 11:27:25.611776 11844 net.cpp:137] Memory required for data: 191015092\r\nI1008 11:27:25.611776 11844 layer_factory.hpp:77] Creating layer inception_4d/relu_pool_proj\r\nI1008 11:27:25.611776 11844 net.cpp:84] Creating Layer inception_4d/relu_pool_proj\r\nI1008 11:27:25.611776 11844 net.cpp:406] inception_4d/relu_pool_proj <- inception_4d/pool_proj\r\nI1008 11:27:25.611776 11844 net.cpp:367] inception_4d/relu_pool_proj -> inception_4d/pool_proj (in-place)\r\nI1008 11:27:25.611776 11844 net.cpp:122] Setting up inception_4d/relu_pool_proj\r\nI1008 11:27:25.611776 11844 net.cpp:129] Top shape: 4 64 14 14 (50176)\r\nI1008 11:27:25.611776 11844 net.cpp:137] Memory required for data: 191215796\r\nI1008 11:27:25.611776 11844 layer_factory.hpp:77] Creating layer inception_4d/output\r\nI1008 11:27:25.611776 11844 net.cpp:84] Creating Layer inception_4d/output\r\nI1008 11:27:25.611776 11844 net.cpp:406] inception_4d/output <- inception_4d/1x1\r\nI1008 11:27:25.611776 11844 net.cpp:406] inception_4d/output <- inception_4d/3x3\r\nI1008 11:27:25.611776 11844 net.cpp:406] inception_4d/output <- inception_4d/5x5\r\nI1008 11:27:25.612776 11844 net.cpp:406] inception_4d/output <- inception_4d/pool_proj\r\nI1008 11:27:25.612818 11844 net.cpp:380] inception_4d/output -> inception_4d/output\r\nI1008 11:27:25.612818 11844 net.cpp:122] Setting up inception_4d/output\r\nI1008 11:27:25.612818 11844 net.cpp:129] Top shape: 4 528 14 14 (413952)\r\nI1008 11:27:25.612818 11844 net.cpp:137] Memory required for data: 192871604\r\nI1008 11:27:25.612818 11844 layer_factory.hpp:77] Creating layer inception_4d/output_inception_4d/output_0_split\r\nI1008 11:27:25.612818 11844 net.cpp:84] Creating Layer inception_4d/output_inception_4d/output_0_split\r\nI1008 11:27:25.612818 11844 net.cpp:406] inception_4d/output_inception_4d/output_0_split <- inception_4d/output\r\nI1008 11:27:25.612818 11844 net.cpp:380] inception_4d/output_inception_4d/output_0_split -> inception_4d/output_inception_4d/output_0_split_0\r\nI1008 11:27:25.612818 11844 net.cpp:380] inception_4d/output_inception_4d/output_0_split -> inception_4d/output_inception_4d/output_0_split_1\r\nI1008 11:27:25.612818 11844 net.cpp:380] inception_4d/output_inception_4d/output_0_split -> inception_4d/output_inception_4d/output_0_split_2\r\nI1008 11:27:25.612818 11844 net.cpp:380] inception_4d/output_inception_4d/output_0_split -> inception_4d/output_inception_4d/output_0_split_3\r\nI1008 11:27:25.612818 11844 net.cpp:380] inception_4d/output_inception_4d/output_0_split -> inception_4d/output_inception_4d/output_0_split_4\r\nI1008 11:27:25.612818 11844 net.cpp:122] Setting up inception_4d/output_inception_4d/output_0_split\r\nI1008 11:27:25.612818 11844 net.cpp:129] Top shape: 4 528 14 14 (413952)\r\nI1008 11:27:25.612818 11844 net.cpp:129] Top shape: 4 528 14 14 (413952)\r\nI1008 11:27:25.612818 11844 net.cpp:129] Top shape: 4 528 14 14 (413952)\r\nI1008 11:27:25.612818 11844 net.cpp:129] Top shape: 4 528 14 14 (413952)\r\nI1008 11:27:25.612818 11844 net.cpp:129] Top shape: 4 528 14 14 (413952)\r\nI1008 11:27:25.612818 11844 net.cpp:137] Memory required for data: 201150644\r\nI1008 11:27:25.612818 11844 layer_factory.hpp:77] Creating layer loss2/ave_pool\r\nI1008 11:27:25.612818 11844 net.cpp:84] Creating Layer loss2/ave_pool\r\nI1008 11:27:25.612818 11844 net.cpp:406] loss2/ave_pool <- inception_4d/output_inception_4d/output_0_split_0\r\nI1008 11:27:25.612818 11844 net.cpp:380] loss2/ave_pool -> loss2/ave_pool\r\nI1008 11:27:25.612818 11844 net.cpp:122] Setting up loss2/ave_pool\r\nI1008 11:27:25.612818 11844 net.cpp:129] Top shape: 4 528 4 4 (33792)\r\nI1008 11:27:25.612818 11844 net.cpp:137] Memory required for data: 201285812\r\nI1008 11:27:25.612818 11844 layer_factory.hpp:77] Creating layer loss2/conv\r\nI1008 11:27:25.612818 11844 net.cpp:84] Creating Layer loss2/conv\r\nI1008 11:27:25.612818 11844 net.cpp:406] loss2/conv <- loss2/ave_pool\r\nI1008 11:27:25.613842 11844 net.cpp:380] loss2/conv -> loss2/conv\r\nI1008 11:27:25.613842 11844 net.cpp:122] Setting up loss2/conv\r\nI1008 11:27:25.613842 11844 net.cpp:129] Top shape: 4 128 4 4 (8192)\r\nI1008 11:27:25.613842 11844 net.cpp:137] Memory required for data: 201318580\r\nI1008 11:27:25.613842 11844 layer_factory.hpp:77] Creating layer loss2/relu_conv\r\nI1008 11:27:25.613842 11844 net.cpp:84] Creating Layer loss2/relu_conv\r\nI1008 11:27:25.613842 11844 net.cpp:406] loss2/relu_conv <- loss2/conv\r\nI1008 11:27:25.613842 11844 net.cpp:367] loss2/relu_conv -> loss2/conv (in-place)\r\nI1008 11:27:25.613842 11844 net.cpp:122] Setting up loss2/relu_conv\r\nI1008 11:27:25.613842 11844 net.cpp:129] Top shape: 4 128 4 4 (8192)\r\nI1008 11:27:25.613842 11844 net.cpp:137] Memory required for data: 201351348\r\nI1008 11:27:25.614840 11844 layer_factory.hpp:77] Creating layer loss2/fc\r\nI1008 11:27:25.614876 11844 net.cpp:84] Creating Layer loss2/fc\r\nI1008 11:27:25.614876 11844 net.cpp:406] loss2/fc <- loss2/conv\r\nI1008 11:27:25.614876 11844 net.cpp:380] loss2/fc -> loss2/fc\r\nI1008 11:27:25.645296 11844 net.cpp:122] Setting up loss2/fc\r\nI1008 11:27:25.645296 11844 net.cpp:129] Top shape: 4 1024 (4096)\r\nI1008 11:27:25.645296 11844 net.cpp:137] Memory required for data: 201367732\r\nI1008 11:27:25.645666 11844 layer_factory.hpp:77] Creating layer loss2/relu_fc\r\nI1008 11:27:25.645666 11844 net.cpp:84] Creating Layer loss2/relu_fc\r\nI1008 11:27:25.645666 11844 net.cpp:406] loss2/relu_fc <- loss2/fc\r\nI1008 11:27:25.645666 11844 net.cpp:367] loss2/relu_fc -> loss2/fc (in-place)\r\nI1008 11:27:25.645666 11844 net.cpp:122] Setting up loss2/relu_fc\r\nI1008 11:27:25.645666 11844 net.cpp:129] Top shape: 4 1024 (4096)\r\nI1008 11:27:25.645666 11844 net.cpp:137] Memory required for data: 201384116\r\nI1008 11:27:25.645666 11844 layer_factory.hpp:77] Creating layer loss2/drop_fc\r\nI1008 11:27:25.645666 11844 net.cpp:84] Creating Layer loss2/drop_fc\r\nI1008 11:27:25.645666 11844 net.cpp:406] loss2/drop_fc <- loss2/fc\r\nI1008 11:27:25.645666 11844 net.cpp:367] loss2/drop_fc -> loss2/fc (in-place)\r\nI1008 11:27:25.645666 11844 net.cpp:122] Setting up loss2/drop_fc\r\nI1008 11:27:25.645666 11844 net.cpp:129] Top shape: 4 1024 (4096)\r\nI1008 11:27:25.645666 11844 net.cpp:137] Memory required for data: 201400500\r\nI1008 11:27:25.645666 11844 layer_factory.hpp:77] Creating layer loss2/SLclassifier\r\nI1008 11:27:25.645666 11844 net.cpp:84] Creating Layer loss2/SLclassifier\r\nI1008 11:27:25.645666 11844 net.cpp:406] loss2/SLclassifier <- loss2/fc\r\nI1008 11:27:25.645666 11844 net.cpp:380] loss2/SLclassifier -> loss2/SLclassifier\r\nI1008 11:27:25.645666 11844 net.cpp:122] Setting up loss2/SLclassifier\r\nI1008 11:27:25.645666 11844 net.cpp:129] Top shape: 4 7 (28)\r\nI1008 11:27:25.645666 11844 net.cpp:137] Memory required for data: 201400612\r\nI1008 11:27:25.645666 11844 layer_factory.hpp:77] Creating layer loss2/loss\r\nI1008 11:27:25.645666 11844 net.cpp:84] Creating Layer loss2/loss\r\nI1008 11:27:25.645666 11844 net.cpp:406] loss2/loss <- loss2/SLclassifier\r\nI1008 11:27:25.645666 11844 net.cpp:406] loss2/loss <- label_data_1_split_1\r\nI1008 11:27:25.645666 11844 net.cpp:380] loss2/loss -> loss2/loss1\r\nI1008 11:27:25.645666 11844 layer_factory.hpp:77] Creating layer loss2/loss\r\nI1008 11:27:25.645666 11844 net.cpp:122] Setting up loss2/loss\r\nI1008 11:27:25.646663 11844 net.cpp:129] Top shape: (1)\r\nI1008 11:27:25.646663 11844 net.cpp:132]     with loss weight 0.3\r\nI1008 11:27:25.646726 11844 net.cpp:137] Memory required for data: 201400616\r\nI1008 11:27:25.646726 11844 layer_factory.hpp:77] Creating layer inception_4e/1x1\r\nI1008 11:27:25.646726 11844 net.cpp:84] Creating Layer inception_4e/1x1\r\nI1008 11:27:25.646726 11844 net.cpp:406] inception_4e/1x1 <- inception_4d/output_inception_4d/output_0_split_1\r\nI1008 11:27:25.646726 11844 net.cpp:380] inception_4e/1x1 -> inception_4e/1x1\r\nI1008 11:27:25.647725 11844 net.cpp:122] Setting up inception_4e/1x1\r\nI1008 11:27:25.647725 11844 net.cpp:129] Top shape: 4 256 14 14 (200704)\r\nI1008 11:27:25.649039 11844 net.cpp:137] Memory required for data: 202203432\r\nI1008 11:27:25.649039 11844 layer_factory.hpp:77] Creating layer inception_4e/relu_1x1\r\nI1008 11:27:25.649039 11844 net.cpp:84] Creating Layer inception_4e/relu_1x1\r\nI1008 11:27:25.649039 11844 net.cpp:406] inception_4e/relu_1x1 <- inception_4e/1x1\r\nI1008 11:27:25.649039 11844 net.cpp:367] inception_4e/relu_1x1 -> inception_4e/1x1 (in-place)\r\nI1008 11:27:25.649039 11844 net.cpp:122] Setting up inception_4e/relu_1x1\r\nI1008 11:27:25.649039 11844 net.cpp:129] Top shape: 4 256 14 14 (200704)\r\nI1008 11:27:25.649039 11844 net.cpp:137] Memory required for data: 203006248\r\nI1008 11:27:25.649039 11844 layer_factory.hpp:77] Creating layer inception_4e/3x3_reduce\r\nI1008 11:27:25.649039 11844 net.cpp:84] Creating Layer inception_4e/3x3_reduce\r\nI1008 11:27:25.649039 11844 net.cpp:406] inception_4e/3x3_reduce <- inception_4d/output_inception_4d/output_0_split_2\r\nI1008 11:27:25.649039 11844 net.cpp:380] inception_4e/3x3_reduce -> inception_4e/3x3_reduce\r\nI1008 11:27:25.650038 11844 net.cpp:122] Setting up inception_4e/3x3_reduce\r\nI1008 11:27:25.650038 11844 net.cpp:129] Top shape: 4 160 14 14 (125440)\r\nI1008 11:27:25.650708 11844 net.cpp:137] Memory required for data: 203508008\r\nI1008 11:27:25.650708 11844 layer_factory.hpp:77] Creating layer inception_4e/relu_3x3_reduce\r\nI1008 11:27:25.650708 11844 net.cpp:84] Creating Layer inception_4e/relu_3x3_reduce\r\nI1008 11:27:25.650708 11844 net.cpp:406] inception_4e/relu_3x3_reduce <- inception_4e/3x3_reduce\r\nI1008 11:27:25.650708 11844 net.cpp:367] inception_4e/relu_3x3_reduce -> inception_4e/3x3_reduce (in-place)\r\nI1008 11:27:25.650708 11844 net.cpp:122] Setting up inception_4e/relu_3x3_reduce\r\nI1008 11:27:25.650708 11844 net.cpp:129] Top shape: 4 160 14 14 (125440)\r\nI1008 11:27:25.650708 11844 net.cpp:137] Memory required for data: 204009768\r\nI1008 11:27:25.650708 11844 layer_factory.hpp:77] Creating layer inception_4e/3x3\r\nI1008 11:27:25.650708 11844 net.cpp:84] Creating Layer inception_4e/3x3\r\nI1008 11:27:25.650708 11844 net.cpp:406] inception_4e/3x3 <- inception_4e/3x3_reduce\r\nI1008 11:27:25.650708 11844 net.cpp:380] inception_4e/3x3 -> inception_4e/3x3\r\nI1008 11:27:25.658435 11844 net.cpp:122] Setting up inception_4e/3x3\r\nI1008 11:27:25.658435 11844 net.cpp:129] Top shape: 4 320 14 14 (250880)\r\nI1008 11:27:25.658435 11844 net.cpp:137] Memory required for data: 205013288\r\nI1008 11:27:25.658435 11844 layer_factory.hpp:77] Creating layer inception_4e/relu_3x3\r\nI1008 11:27:25.658435 11844 net.cpp:84] Creating Layer inception_4e/relu_3x3\r\nI1008 11:27:25.658435 11844 net.cpp:406] inception_4e/relu_3x3 <- inception_4e/3x3\r\nI1008 11:27:25.658435 11844 net.cpp:367] inception_4e/relu_3x3 -> inception_4e/3x3 (in-place)\r\nI1008 11:27:25.658435 11844 net.cpp:122] Setting up inception_4e/relu_3x3\r\nI1008 11:27:25.658435 11844 net.cpp:129] Top shape: 4 320 14 14 (250880)\r\nI1008 11:27:25.658435 11844 net.cpp:137] Memory required for data: 206016808\r\nI1008 11:27:25.658435 11844 layer_factory.hpp:77] Creating layer inception_4e/5x5_reduce\r\nI1008 11:27:25.658435 11844 net.cpp:84] Creating Layer inception_4e/5x5_reduce\r\nI1008 11:27:25.658435 11844 net.cpp:406] inception_4e/5x5_reduce <- inception_4d/output_inception_4d/output_0_split_3\r\nI1008 11:27:25.658435 11844 net.cpp:380] inception_4e/5x5_reduce -> inception_4e/5x5_reduce\r\nI1008 11:27:25.658435 11844 net.cpp:122] Setting up inception_4e/5x5_reduce\r\nI1008 11:27:25.658435 11844 net.cpp:129] Top shape: 4 32 14 14 (25088)\r\nI1008 11:27:25.658435 11844 net.cpp:137] Memory required for data: 206117160\r\nI1008 11:27:25.658435 11844 layer_factory.hpp:77] Creating layer inception_4e/relu_5x5_reduce\r\nI1008 11:27:25.658435 11844 net.cpp:84] Creating Layer inception_4e/relu_5x5_reduce\r\nI1008 11:27:25.658435 11844 net.cpp:406] inception_4e/relu_5x5_reduce <- inception_4e/5x5_reduce\r\nI1008 11:27:25.658435 11844 net.cpp:367] inception_4e/relu_5x5_reduce -> inception_4e/5x5_reduce (in-place)\r\nI1008 11:27:25.658435 11844 net.cpp:122] Setting up inception_4e/relu_5x5_reduce\r\nI1008 11:27:25.658435 11844 net.cpp:129] Top shape: 4 32 14 14 (25088)\r\nI1008 11:27:25.658435 11844 net.cpp:137] Memory required for data: 206217512\r\nI1008 11:27:25.659432 11844 layer_factory.hpp:77] Creating layer inception_4e/5x5\r\nI1008 11:27:25.659432 11844 net.cpp:84] Creating Layer inception_4e/5x5\r\nI1008 11:27:25.659432 11844 net.cpp:406] inception_4e/5x5 <- inception_4e/5x5_reduce\r\nI1008 11:27:25.659432 11844 net.cpp:380] inception_4e/5x5 -> inception_4e/5x5\r\nI1008 11:27:25.659432 11844 net.cpp:122] Setting up inception_4e/5x5\r\nI1008 11:27:25.659432 11844 net.cpp:129] Top shape: 4 128 14 14 (100352)\r\nI1008 11:27:25.660430 11844 net.cpp:137] Memory required for data: 206618920\r\nI1008 11:27:25.660430 11844 layer_factory.hpp:77] Creating layer inception_4e/relu_5x5\r\nI1008 11:27:25.660482 11844 net.cpp:84] Creating Layer inception_4e/relu_5x5\r\nI1008 11:27:25.660482 11844 net.cpp:406] inception_4e/relu_5x5 <- inception_4e/5x5\r\nI1008 11:27:25.660482 11844 net.cpp:367] inception_4e/relu_5x5 -> inception_4e/5x5 (in-place)\r\nI1008 11:27:25.660482 11844 net.cpp:122] Setting up inception_4e/relu_5x5\r\nI1008 11:27:25.660482 11844 net.cpp:129] Top shape: 4 128 14 14 (100352)\r\nI1008 11:27:25.660482 11844 net.cpp:137] Memory required for data: 207020328\r\nI1008 11:27:25.660482 11844 layer_factory.hpp:77] Creating layer inception_4e/pool\r\nI1008 11:27:25.660482 11844 net.cpp:84] Creating Layer inception_4e/pool\r\nI1008 11:27:25.660482 11844 net.cpp:406] inception_4e/pool <- inception_4d/output_inception_4d/output_0_split_4\r\nI1008 11:27:25.660482 11844 net.cpp:380] inception_4e/pool -> inception_4e/pool\r\nI1008 11:27:25.660482 11844 net.cpp:122] Setting up inception_4e/pool\r\nI1008 11:27:25.660482 11844 net.cpp:129] Top shape: 4 528 14 14 (413952)\r\nI1008 11:27:25.660482 11844 net.cpp:137] Memory required for data: 208676136\r\nI1008 11:27:25.660482 11844 layer_factory.hpp:77] Creating layer inception_4e/pool_proj\r\nI1008 11:27:25.660482 11844 net.cpp:84] Creating Layer inception_4e/pool_proj\r\nI1008 11:27:25.660482 11844 net.cpp:406] inception_4e/pool_proj <- inception_4e/pool\r\nI1008 11:27:25.660482 11844 net.cpp:380] inception_4e/pool_proj -> inception_4e/pool_proj\r\nI1008 11:27:25.660482 11844 net.cpp:122] Setting up inception_4e/pool_proj\r\nI1008 11:27:25.660482 11844 net.cpp:129] Top shape: 4 128 14 14 (100352)\r\nI1008 11:27:25.660482 11844 net.cpp:137] Memory required for data: 209077544\r\nI1008 11:27:25.660482 11844 layer_factory.hpp:77] Creating layer inception_4e/relu_pool_proj\r\nI1008 11:27:25.660482 11844 net.cpp:84] Creating Layer inception_4e/relu_pool_proj\r\nI1008 11:27:25.661506 11844 net.cpp:406] inception_4e/relu_pool_proj <- inception_4e/pool_proj\r\nI1008 11:27:25.661506 11844 net.cpp:367] inception_4e/relu_pool_proj -> inception_4e/pool_proj (in-place)\r\nI1008 11:27:25.661506 11844 net.cpp:122] Setting up inception_4e/relu_pool_proj\r\nI1008 11:27:25.661506 11844 net.cpp:129] Top shape: 4 128 14 14 (100352)\r\nI1008 11:27:25.661506 11844 net.cpp:137] Memory required for data: 209478952\r\nI1008 11:27:25.661506 11844 layer_factory.hpp:77] Creating layer inception_4e/output\r\nI1008 11:27:25.661506 11844 net.cpp:84] Creating Layer inception_4e/output\r\nI1008 11:27:25.661506 11844 net.cpp:406] inception_4e/output <- inception_4e/1x1\r\nI1008 11:27:25.661506 11844 net.cpp:406] inception_4e/output <- inception_4e/3x3\r\nI1008 11:27:25.661506 11844 net.cpp:406] inception_4e/output <- inception_4e/5x5\r\nI1008 11:27:25.661506 11844 net.cpp:406] inception_4e/output <- inception_4e/pool_proj\r\nI1008 11:27:25.661506 11844 net.cpp:380] inception_4e/output -> inception_4e/output\r\nI1008 11:27:25.661506 11844 net.cpp:122] Setting up inception_4e/output\r\nI1008 11:27:25.661506 11844 net.cpp:129] Top shape: 4 832 14 14 (652288)\r\nI1008 11:27:25.661506 11844 net.cpp:137] Memory required for data: 212088104\r\nI1008 11:27:25.661506 11844 layer_factory.hpp:77] Creating layer pool4/3x3_s2\r\nI1008 11:27:25.661506 11844 net.cpp:84] Creating Layer pool4/3x3_s2\r\nI1008 11:27:25.661506 11844 net.cpp:406] pool4/3x3_s2 <- inception_4e/output\r\nI1008 11:27:25.661506 11844 net.cpp:380] pool4/3x3_s2 -> pool4/3x3_s2\r\nI1008 11:27:25.661506 11844 net.cpp:122] Setting up pool4/3x3_s2\r\nI1008 11:27:25.661506 11844 net.cpp:129] Top shape: 4 832 7 7 (163072)\r\nI1008 11:27:25.661506 11844 net.cpp:137] Memory required for data: 212740392\r\nI1008 11:27:25.661506 11844 layer_factory.hpp:77] Creating layer pool4/3x3_s2_pool4/3x3_s2_0_split\r\nI1008 11:27:25.661506 11844 net.cpp:84] Creating Layer pool4/3x3_s2_pool4/3x3_s2_0_split\r\nI1008 11:27:25.661506 11844 net.cpp:406] pool4/3x3_s2_pool4/3x3_s2_0_split <- pool4/3x3_s2\r\nI1008 11:27:25.661506 11844 net.cpp:380] pool4/3x3_s2_pool4/3x3_s2_0_split -> pool4/3x3_s2_pool4/3x3_s2_0_split_0\r\nI1008 11:27:25.661506 11844 net.cpp:380] pool4/3x3_s2_pool4/3x3_s2_0_split -> pool4/3x3_s2_pool4/3x3_s2_0_split_1\r\nI1008 11:27:25.661506 11844 net.cpp:380] pool4/3x3_s2_pool4/3x3_s2_0_split -> pool4/3x3_s2_pool4/3x3_s2_0_split_2\r\nI1008 11:27:25.661506 11844 net.cpp:380] pool4/3x3_s2_pool4/3x3_s2_0_split -> pool4/3x3_s2_pool4/3x3_s2_0_split_3\r\nI1008 11:27:25.661506 11844 net.cpp:122] Setting up pool4/3x3_s2_pool4/3x3_s2_0_split\r\nI1008 11:27:25.661506 11844 net.cpp:129] Top shape: 4 832 7 7 (163072)\r\nI1008 11:27:25.661506 11844 net.cpp:129] Top shape: 4 832 7 7 (163072)\r\nI1008 11:27:25.661506 11844 net.cpp:129] Top shape: 4 832 7 7 (163072)\r\nI1008 11:27:25.661506 11844 net.cpp:129] Top shape: 4 832 7 7 (163072)\r\nI1008 11:27:25.661506 11844 net.cpp:137] Memory required for data: 215349544\r\nI1008 11:27:25.661506 11844 layer_factory.hpp:77] Creating layer inception_5a/1x1\r\nI1008 11:27:25.661506 11844 net.cpp:84] Creating Layer inception_5a/1x1\r\nI1008 11:27:25.662503 11844 net.cpp:406] inception_5a/1x1 <- pool4/3x3_s2_pool4/3x3_s2_0_split_0\r\nI1008 11:27:25.662503 11844 net.cpp:380] inception_5a/1x1 -> inception_5a/1x1\r\nI1008 11:27:25.663502 11844 net.cpp:122] Setting up inception_5a/1x1\r\nI1008 11:27:25.664500 11844 net.cpp:129] Top shape: 4 256 7 7 (50176)\r\nI1008 11:27:25.664500 11844 net.cpp:137] Memory required for data: 215550248\r\nI1008 11:27:25.664500 11844 layer_factory.hpp:77] Creating layer inception_5a/relu_1x1\r\nI1008 11:27:25.664572 11844 net.cpp:84] Creating Layer inception_5a/relu_1x1\r\nI1008 11:27:25.664572 11844 net.cpp:406] inception_5a/relu_1x1 <- inception_5a/1x1\r\nI1008 11:27:25.664572 11844 net.cpp:367] inception_5a/relu_1x1 -> inception_5a/1x1 (in-place)\r\nI1008 11:27:25.664572 11844 net.cpp:122] Setting up inception_5a/relu_1x1\r\nI1008 11:27:25.664572 11844 net.cpp:129] Top shape: 4 256 7 7 (50176)\r\nI1008 11:27:25.664572 11844 net.cpp:137] Memory required for data: 215750952\r\nI1008 11:27:25.664572 11844 layer_factory.hpp:77] Creating layer inception_5a/3x3_reduce\r\nI1008 11:27:25.664572 11844 net.cpp:84] Creating Layer inception_5a/3x3_reduce\r\nI1008 11:27:25.664572 11844 net.cpp:406] inception_5a/3x3_reduce <- pool4/3x3_s2_pool4/3x3_s2_0_split_1\r\nI1008 11:27:25.664572 11844 net.cpp:380] inception_5a/3x3_reduce -> inception_5a/3x3_reduce\r\nI1008 11:27:25.665570 11844 net.cpp:122] Setting up inception_5a/3x3_reduce\r\nI1008 11:27:25.665570 11844 net.cpp:129] Top shape: 4 160 7 7 (31360)\r\nI1008 11:27:25.666005 11844 net.cpp:137] Memory required for data: 215876392\r\nI1008 11:27:25.666005 11844 layer_factory.hpp:77] Creating layer inception_5a/relu_3x3_reduce\r\nI1008 11:27:25.666005 11844 net.cpp:84] Creating Layer inception_5a/relu_3x3_reduce\r\nI1008 11:27:25.666005 11844 net.cpp:406] inception_5a/relu_3x3_reduce <- inception_5a/3x3_reduce\r\nI1008 11:27:25.666005 11844 net.cpp:367] inception_5a/relu_3x3_reduce -> inception_5a/3x3_reduce (in-place)\r\nI1008 11:27:25.666005 11844 net.cpp:122] Setting up inception_5a/relu_3x3_reduce\r\nI1008 11:27:25.666005 11844 net.cpp:129] Top shape: 4 160 7 7 (31360)\r\nI1008 11:27:25.666005 11844 net.cpp:137] Memory required for data: 216001832\r\nI1008 11:27:25.666005 11844 layer_factory.hpp:77] Creating layer inception_5a/3x3\r\nI1008 11:27:25.666005 11844 net.cpp:84] Creating Layer inception_5a/3x3\r\nI1008 11:27:25.666005 11844 net.cpp:406] inception_5a/3x3 <- inception_5a/3x3_reduce\r\nI1008 11:27:25.666005 11844 net.cpp:380] inception_5a/3x3 -> inception_5a/3x3\r\nI1008 11:27:25.667004 11844 net.cpp:122] Setting up inception_5a/3x3\r\nI1008 11:27:25.667004 11844 net.cpp:129] Top shape: 4 320 7 7 (62720)\r\nI1008 11:27:25.667004 11844 net.cpp:137] Memory required for data: 216252712\r\nI1008 11:27:25.670511 11844 layer_factory.hpp:77] Creating layer inception_5a/relu_3x3\r\nI1008 11:27:25.670511 11844 net.cpp:84] Creating Layer inception_5a/relu_3x3\r\nI1008 11:27:25.670511 11844 net.cpp:406] inception_5a/relu_3x3 <- inception_5a/3x3\r\nI1008 11:27:25.670511 11844 net.cpp:367] inception_5a/relu_3x3 -> inception_5a/3x3 (in-place)\r\nI1008 11:27:25.670511 11844 net.cpp:122] Setting up inception_5a/relu_3x3\r\nI1008 11:27:25.670511 11844 net.cpp:129] Top shape: 4 320 7 7 (62720)\r\nI1008 11:27:25.670511 11844 net.cpp:137] Memory required for data: 216503592\r\nI1008 11:27:25.670511 11844 layer_factory.hpp:77] Creating layer inception_5a/5x5_reduce\r\nI1008 11:27:25.670511 11844 net.cpp:84] Creating Layer inception_5a/5x5_reduce\r\nI1008 11:27:25.670511 11844 net.cpp:406] inception_5a/5x5_reduce <- pool4/3x3_s2_pool4/3x3_s2_0_split_2\r\nI1008 11:27:25.670511 11844 net.cpp:380] inception_5a/5x5_reduce -> inception_5a/5x5_reduce\r\nI1008 11:27:25.670511 11844 net.cpp:122] Setting up inception_5a/5x5_reduce\r\nI1008 11:27:25.670511 11844 net.cpp:129] Top shape: 4 32 7 7 (6272)\r\nI1008 11:27:25.670511 11844 net.cpp:137] Memory required for data: 216528680\r\nI1008 11:27:25.670511 11844 layer_factory.hpp:77] Creating layer inception_5a/relu_5x5_reduce\r\nI1008 11:27:25.670511 11844 net.cpp:84] Creating Layer inception_5a/relu_5x5_reduce\r\nI1008 11:27:25.670511 11844 net.cpp:406] inception_5a/relu_5x5_reduce <- inception_5a/5x5_reduce\r\nI1008 11:27:25.670511 11844 net.cpp:367] inception_5a/relu_5x5_reduce -> inception_5a/5x5_reduce (in-place)\r\nI1008 11:27:25.670511 11844 net.cpp:122] Setting up inception_5a/relu_5x5_reduce\r\nI1008 11:27:25.670511 11844 net.cpp:129] Top shape: 4 32 7 7 (6272)\r\nI1008 11:27:25.670511 11844 net.cpp:137] Memory required for data: 216553768\r\nI1008 11:27:25.670511 11844 layer_factory.hpp:77] Creating layer inception_5a/5x5\r\nI1008 11:27:25.670511 11844 net.cpp:84] Creating Layer inception_5a/5x5\r\nI1008 11:27:25.670511 11844 net.cpp:406] inception_5a/5x5 <- inception_5a/5x5_reduce\r\nI1008 11:27:25.670511 11844 net.cpp:380] inception_5a/5x5 -> inception_5a/5x5\r\nI1008 11:27:25.671509 11844 net.cpp:122] Setting up inception_5a/5x5\r\nI1008 11:27:25.671509 11844 net.cpp:129] Top shape: 4 128 7 7 (25088)\r\nI1008 11:27:25.672264 11844 net.cpp:137] Memory required for data: 216654120\r\nI1008 11:27:25.672264 11844 layer_factory.hpp:77] Creating layer inception_5a/relu_5x5\r\nI1008 11:27:25.672264 11844 net.cpp:84] Creating Layer inception_5a/relu_5x5\r\nI1008 11:27:25.672264 11844 net.cpp:406] inception_5a/relu_5x5 <- inception_5a/5x5\r\nI1008 11:27:25.672264 11844 net.cpp:367] inception_5a/relu_5x5 -> inception_5a/5x5 (in-place)\r\nI1008 11:27:25.672264 11844 net.cpp:122] Setting up inception_5a/relu_5x5\r\nI1008 11:27:25.672264 11844 net.cpp:129] Top shape: 4 128 7 7 (25088)\r\nI1008 11:27:25.672264 11844 net.cpp:137] Memory required for data: 216754472\r\nI1008 11:27:25.672264 11844 layer_factory.hpp:77] Creating layer inception_5a/pool\r\nI1008 11:27:25.672264 11844 net.cpp:84] Creating Layer inception_5a/pool\r\nI1008 11:27:25.672264 11844 net.cpp:406] inception_5a/pool <- pool4/3x3_s2_pool4/3x3_s2_0_split_3\r\nI1008 11:27:25.672264 11844 net.cpp:380] inception_5a/pool -> inception_5a/pool\r\nI1008 11:27:25.672264 11844 net.cpp:122] Setting up inception_5a/pool\r\nI1008 11:27:25.672264 11844 net.cpp:129] Top shape: 4 832 7 7 (163072)\r\nI1008 11:27:25.672264 11844 net.cpp:137] Memory required for data: 217406760\r\nI1008 11:27:25.672264 11844 layer_factory.hpp:77] Creating layer inception_5a/pool_proj\r\nI1008 11:27:25.672264 11844 net.cpp:84] Creating Layer inception_5a/pool_proj\r\nI1008 11:27:25.673262 11844 net.cpp:406] inception_5a/pool_proj <- inception_5a/pool\r\nI1008 11:27:25.673262 11844 net.cpp:380] inception_5a/pool_proj -> inception_5a/pool_proj\r\nI1008 11:27:25.673262 11844 net.cpp:122] Setting up inception_5a/pool_proj\r\nI1008 11:27:25.673262 11844 net.cpp:129] Top shape: 4 128 7 7 (25088)\r\nI1008 11:27:25.673262 11844 net.cpp:137] Memory required for data: 217507112\r\nI1008 11:27:25.675791 11844 layer_factory.hpp:77] Creating layer inception_5a/relu_pool_proj\r\nI1008 11:27:25.675791 11844 net.cpp:84] Creating Layer inception_5a/relu_pool_proj\r\nI1008 11:27:25.675791 11844 net.cpp:406] inception_5a/relu_pool_proj <- inception_5a/pool_proj\r\nI1008 11:27:25.675791 11844 net.cpp:367] inception_5a/relu_pool_proj -> inception_5a/pool_proj (in-place)\r\nI1008 11:27:25.675791 11844 net.cpp:122] Setting up inception_5a/relu_pool_proj\r\nI1008 11:27:25.675791 11844 net.cpp:129] Top shape: 4 128 7 7 (25088)\r\nI1008 11:27:25.675791 11844 net.cpp:137] Memory required for data: 217607464\r\nI1008 11:27:25.675791 11844 layer_factory.hpp:77] Creating layer inception_5a/output\r\nI1008 11:27:25.675791 11844 net.cpp:84] Creating Layer inception_5a/output\r\nI1008 11:27:25.675791 11844 net.cpp:406] inception_5a/output <- inception_5a/1x1\r\nI1008 11:27:25.675791 11844 net.cpp:406] inception_5a/output <- inception_5a/3x3\r\nI1008 11:27:25.675791 11844 net.cpp:406] inception_5a/output <- inception_5a/5x5\r\nI1008 11:27:25.675791 11844 net.cpp:406] inception_5a/output <- inception_5a/pool_proj\r\nI1008 11:27:25.675791 11844 net.cpp:380] inception_5a/output -> inception_5a/output\r\nI1008 11:27:25.675791 11844 net.cpp:122] Setting up inception_5a/output\r\nI1008 11:27:25.675791 11844 net.cpp:129] Top shape: 4 832 7 7 (163072)\r\nI1008 11:27:25.675791 11844 net.cpp:137] Memory required for data: 218259752\r\nI1008 11:27:25.675791 11844 layer_factory.hpp:77] Creating layer inception_5a/output_inception_5a/output_0_split\r\nI1008 11:27:25.675791 11844 net.cpp:84] Creating Layer inception_5a/output_inception_5a/output_0_split\r\nI1008 11:27:25.675791 11844 net.cpp:406] inception_5a/output_inception_5a/output_0_split <- inception_5a/output\r\nI1008 11:27:25.675791 11844 net.cpp:380] inception_5a/output_inception_5a/output_0_split -> inception_5a/output_inception_5a/output_0_split_0\r\nI1008 11:27:25.675791 11844 net.cpp:380] inception_5a/output_inception_5a/output_0_split -> inception_5a/output_inception_5a/output_0_split_1\r\nI1008 11:27:25.675791 11844 net.cpp:380] inception_5a/output_inception_5a/output_0_split -> inception_5a/output_inception_5a/output_0_split_2\r\nI1008 11:27:25.675791 11844 net.cpp:380] inception_5a/output_inception_5a/output_0_split -> inception_5a/output_inception_5a/output_0_split_3\r\nI1008 11:27:25.675791 11844 net.cpp:122] Setting up inception_5a/output_inception_5a/output_0_split\r\nI1008 11:27:25.676786 11844 net.cpp:129] Top shape: 4 832 7 7 (163072)\r\nI1008 11:27:25.676846 11844 net.cpp:129] Top shape: 4 832 7 7 (163072)\r\nI1008 11:27:25.676846 11844 net.cpp:129] Top shape: 4 832 7 7 (163072)\r\nI1008 11:27:25.676846 11844 net.cpp:129] Top shape: 4 832 7 7 (163072)\r\nI1008 11:27:25.676846 11844 net.cpp:137] Memory required for data: 220868904\r\nI1008 11:27:25.676846 11844 layer_factory.hpp:77] Creating layer inception_5b/1x1\r\nI1008 11:27:25.676846 11844 net.cpp:84] Creating Layer inception_5b/1x1\r\nI1008 11:27:25.676846 11844 net.cpp:406] inception_5b/1x1 <- inception_5a/output_inception_5a/output_0_split_0\r\nI1008 11:27:25.676846 11844 net.cpp:380] inception_5b/1x1 -> inception_5b/1x1\r\nI1008 11:27:25.677844 11844 net.cpp:122] Setting up inception_5b/1x1\r\nI1008 11:27:25.683187 11844 net.cpp:129] Top shape: 4 384 7 7 (75264)\r\nI1008 11:27:25.683187 11844 net.cpp:137] Memory required for data: 221169960\r\nI1008 11:27:25.683187 11844 layer_factory.hpp:77] Creating layer inception_5b/relu_1x1\r\nI1008 11:27:25.683187 11844 net.cpp:84] Creating Layer inception_5b/relu_1x1\r\nI1008 11:27:25.683187 11844 net.cpp:406] inception_5b/relu_1x1 <- inception_5b/1x1\r\nI1008 11:27:25.683187 11844 net.cpp:367] inception_5b/relu_1x1 -> inception_5b/1x1 (in-place)\r\nI1008 11:27:25.683187 11844 net.cpp:122] Setting up inception_5b/relu_1x1\r\nI1008 11:27:25.683187 11844 net.cpp:129] Top shape: 4 384 7 7 (75264)\r\nI1008 11:27:25.683187 11844 net.cpp:137] Memory required for data: 221471016\r\nI1008 11:27:25.683187 11844 layer_factory.hpp:77] Creating layer inception_5b/3x3_reduce\r\nI1008 11:27:25.683187 11844 net.cpp:84] Creating Layer inception_5b/3x3_reduce\r\nI1008 11:27:25.683187 11844 net.cpp:406] inception_5b/3x3_reduce <- inception_5a/output_inception_5a/output_0_split_1\r\nI1008 11:27:25.683187 11844 net.cpp:380] inception_5b/3x3_reduce -> inception_5b/3x3_reduce\r\nI1008 11:27:25.684181 11844 net.cpp:122] Setting up inception_5b/3x3_reduce\r\nI1008 11:27:25.684181 11844 net.cpp:129] Top shape: 4 192 7 7 (37632)\r\nI1008 11:27:25.684181 11844 net.cpp:137] Memory required for data: 221621544\r\nI1008 11:27:25.686342 11844 layer_factory.hpp:77] Creating layer inception_5b/relu_3x3_reduce\r\nI1008 11:27:25.686342 11844 net.cpp:84] Creating Layer inception_5b/relu_3x3_reduce\r\nI1008 11:27:25.686342 11844 net.cpp:406] inception_5b/relu_3x3_reduce <- inception_5b/3x3_reduce\r\nI1008 11:27:25.686342 11844 net.cpp:367] inception_5b/relu_3x3_reduce -> inception_5b/3x3_reduce (in-place)\r\nI1008 11:27:25.686342 11844 net.cpp:122] Setting up inception_5b/relu_3x3_reduce\r\nI1008 11:27:25.686342 11844 net.cpp:129] Top shape: 4 192 7 7 (37632)\r\nI1008 11:27:25.686342 11844 net.cpp:137] Memory required for data: 221772072\r\nI1008 11:27:25.686342 11844 layer_factory.hpp:77] Creating layer inception_5b/3x3\r\nI1008 11:27:25.686342 11844 net.cpp:84] Creating Layer inception_5b/3x3\r\nI1008 11:27:25.686342 11844 net.cpp:406] inception_5b/3x3 <- inception_5b/3x3_reduce\r\nI1008 11:27:25.686342 11844 net.cpp:380] inception_5b/3x3 -> inception_5b/3x3\r\nI1008 11:27:25.697196 11844 net.cpp:122] Setting up inception_5b/3x3\r\nI1008 11:27:25.697196 11844 net.cpp:129] Top shape: 4 384 7 7 (75264)\r\nI1008 11:27:25.697196 11844 net.cpp:137] Memory required for data: 222073128\r\nI1008 11:27:25.697196 11844 layer_factory.hpp:77] Creating layer inception_5b/relu_3x3\r\nI1008 11:27:25.698021 11844 net.cpp:84] Creating Layer inception_5b/relu_3x3\r\nI1008 11:27:25.698021 11844 net.cpp:406] inception_5b/relu_3x3 <- inception_5b/3x3\r\nI1008 11:27:25.698021 11844 net.cpp:367] inception_5b/relu_3x3 -> inception_5b/3x3 (in-place)\r\nI1008 11:27:25.698021 11844 net.cpp:122] Setting up inception_5b/relu_3x3\r\nI1008 11:27:25.698021 11844 net.cpp:129] Top shape: 4 384 7 7 (75264)\r\nI1008 11:27:25.698021 11844 net.cpp:137] Memory required for data: 222374184\r\nI1008 11:27:25.698021 11844 layer_factory.hpp:77] Creating layer inception_5b/5x5_reduce\r\nI1008 11:27:25.698021 11844 net.cpp:84] Creating Layer inception_5b/5x5_reduce\r\nI1008 11:27:25.698021 11844 net.cpp:406] inception_5b/5x5_reduce <- inception_5a/output_inception_5a/output_0_split_2\r\nI1008 11:27:25.698021 11844 net.cpp:380] inception_5b/5x5_reduce -> inception_5b/5x5_reduce\r\nI1008 11:27:25.698021 11844 net.cpp:122] Setting up inception_5b/5x5_reduce\r\nI1008 11:27:25.699021 11844 net.cpp:129] Top shape: 4 48 7 7 (9408)\r\nI1008 11:27:25.699021 11844 net.cpp:137] Memory required for data: 222411816\r\nI1008 11:27:25.699021 11844 layer_factory.hpp:77] Creating layer inception_5b/relu_5x5_reduce\r\nI1008 11:27:25.699100 11844 net.cpp:84] Creating Layer inception_5b/relu_5x5_reduce\r\nI1008 11:27:25.699100 11844 net.cpp:406] inception_5b/relu_5x5_reduce <- inception_5b/5x5_reduce\r\nI1008 11:27:25.699100 11844 net.cpp:367] inception_5b/relu_5x5_reduce -> inception_5b/5x5_reduce (in-place)\r\nI1008 11:27:25.699100 11844 net.cpp:122] Setting up inception_5b/relu_5x5_reduce\r\nI1008 11:27:25.699100 11844 net.cpp:129] Top shape: 4 48 7 7 (9408)\r\nI1008 11:27:25.699100 11844 net.cpp:137] Memory required for data: 222449448\r\nI1008 11:27:25.699100 11844 layer_factory.hpp:77] Creating layer inception_5b/5x5\r\nI1008 11:27:25.699100 11844 net.cpp:84] Creating Layer inception_5b/5x5\r\nI1008 11:27:25.699100 11844 net.cpp:406] inception_5b/5x5 <- inception_5b/5x5_reduce\r\nI1008 11:27:25.699100 11844 net.cpp:380] inception_5b/5x5 -> inception_5b/5x5\r\nI1008 11:27:25.700129 11844 net.cpp:122] Setting up inception_5b/5x5\r\nI1008 11:27:25.700129 11844 net.cpp:129] Top shape: 4 128 7 7 (25088)\r\nI1008 11:27:25.700129 11844 net.cpp:137] Memory required for data: 222549800\r\nI1008 11:27:25.701598 11844 layer_factory.hpp:77] Creating layer inception_5b/relu_5x5\r\nI1008 11:27:25.701598 11844 net.cpp:84] Creating Layer inception_5b/relu_5x5\r\nI1008 11:27:25.701598 11844 net.cpp:406] inception_5b/relu_5x5 <- inception_5b/5x5\r\nI1008 11:27:25.701598 11844 net.cpp:367] inception_5b/relu_5x5 -> inception_5b/5x5 (in-place)\r\nI1008 11:27:25.701598 11844 net.cpp:122] Setting up inception_5b/relu_5x5\r\nI1008 11:27:25.701598 11844 net.cpp:129] Top shape: 4 128 7 7 (25088)\r\nI1008 11:27:25.701598 11844 net.cpp:137] Memory required for data: 222650152\r\nI1008 11:27:25.701598 11844 layer_factory.hpp:77] Creating layer inception_5b/pool\r\nI1008 11:27:25.701598 11844 net.cpp:84] Creating Layer inception_5b/pool\r\nI1008 11:27:25.701598 11844 net.cpp:406] inception_5b/pool <- inception_5a/output_inception_5a/output_0_split_3\r\nI1008 11:27:25.701598 11844 net.cpp:380] inception_5b/pool -> inception_5b/pool\r\nI1008 11:27:25.701598 11844 net.cpp:122] Setting up inception_5b/pool\r\nI1008 11:27:25.701598 11844 net.cpp:129] Top shape: 4 832 7 7 (163072)\r\nI1008 11:27:25.701598 11844 net.cpp:137] Memory required for data: 223302440\r\nI1008 11:27:25.701598 11844 layer_factory.hpp:77] Creating layer inception_5b/pool_proj\r\nI1008 11:27:25.701598 11844 net.cpp:84] Creating Layer inception_5b/pool_proj\r\nI1008 11:27:25.701598 11844 net.cpp:406] inception_5b/pool_proj <- inception_5b/pool\r\nI1008 11:27:25.701598 11844 net.cpp:380] inception_5b/pool_proj -> inception_5b/pool_proj\r\nI1008 11:27:25.702626 11844 net.cpp:122] Setting up inception_5b/pool_proj\r\nI1008 11:27:25.702626 11844 net.cpp:129] Top shape: 4 128 7 7 (25088)\r\nI1008 11:27:25.702626 11844 net.cpp:137] Memory required for data: 223402792\r\nI1008 11:27:25.704109 11844 layer_factory.hpp:77] Creating layer inception_5b/relu_pool_proj\r\nI1008 11:27:25.704109 11844 net.cpp:84] Creating Layer inception_5b/relu_pool_proj\r\nI1008 11:27:25.704109 11844 net.cpp:406] inception_5b/relu_pool_proj <- inception_5b/pool_proj\r\nI1008 11:27:25.704109 11844 net.cpp:367] inception_5b/relu_pool_proj -> inception_5b/pool_proj (in-place)\r\nI1008 11:27:25.704109 11844 net.cpp:122] Setting up inception_5b/relu_pool_proj\r\nI1008 11:27:25.704109 11844 net.cpp:129] Top shape: 4 128 7 7 (25088)\r\nI1008 11:27:25.704109 11844 net.cpp:137] Memory required for data: 223503144\r\nI1008 11:27:25.704109 11844 layer_factory.hpp:77] Creating layer inception_5b/output\r\nI1008 11:27:25.704109 11844 net.cpp:84] Creating Layer inception_5b/output\r\nI1008 11:27:25.704109 11844 net.cpp:406] inception_5b/output <- inception_5b/1x1\r\nI1008 11:27:25.704109 11844 net.cpp:406] inception_5b/output <- inception_5b/3x3\r\nI1008 11:27:25.704109 11844 net.cpp:406] inception_5b/output <- inception_5b/5x5\r\nI1008 11:27:25.704109 11844 net.cpp:406] inception_5b/output <- inception_5b/pool_proj\r\nI1008 11:27:25.704109 11844 net.cpp:380] inception_5b/output -> inception_5b/output\r\nI1008 11:27:25.704109 11844 net.cpp:122] Setting up inception_5b/output\r\nI1008 11:27:25.704109 11844 net.cpp:129] Top shape: 4 1024 7 7 (200704)\r\nI1008 11:27:25.704109 11844 net.cpp:137] Memory required for data: 224305960\r\nI1008 11:27:25.704109 11844 layer_factory.hpp:77] Creating layer pool5/7x7_s1\r\nI1008 11:27:25.704109 11844 net.cpp:84] Creating Layer pool5/7x7_s1\r\nI1008 11:27:25.704109 11844 net.cpp:406] pool5/7x7_s1 <- inception_5b/output\r\nI1008 11:27:25.704109 11844 net.cpp:380] pool5/7x7_s1 -> pool5/7x7_s1\r\nI1008 11:27:25.704109 11844 net.cpp:122] Setting up pool5/7x7_s1\r\nI1008 11:27:25.704109 11844 net.cpp:129] Top shape: 4 1024 1 1 (4096)\r\nI1008 11:27:25.704109 11844 net.cpp:137] Memory required for data: 224322344\r\nI1008 11:27:25.704109 11844 layer_factory.hpp:77] Creating layer pool5/drop_7x7_s1\r\nI1008 11:27:25.704109 11844 net.cpp:84] Creating Layer pool5/drop_7x7_s1\r\nI1008 11:27:25.704109 11844 net.cpp:406] pool5/drop_7x7_s1 <- pool5/7x7_s1\r\nI1008 11:27:25.705103 11844 net.cpp:367] pool5/drop_7x7_s1 -> pool5/7x7_s1 (in-place)\r\nI1008 11:27:25.705103 11844 net.cpp:122] Setting up pool5/drop_7x7_s1\r\nI1008 11:27:25.705103 11844 net.cpp:129] Top shape: 4 1024 1 1 (4096)\r\nI1008 11:27:25.705103 11844 net.cpp:137] Memory required for data: 224338728\r\nI1008 11:27:25.705103 11844 layer_factory.hpp:77] Creating layer loss3/SLclassifier\r\nI1008 11:27:25.705103 11844 net.cpp:84] Creating Layer loss3/SLclassifier\r\nI1008 11:27:25.705103 11844 net.cpp:406] loss3/SLclassifier <- pool5/7x7_s1\r\nI1008 11:27:25.705103 11844 net.cpp:380] loss3/SLclassifier -> loss3/SLclassifier\r\nI1008 11:27:25.705103 11844 net.cpp:122] Setting up loss3/SLclassifier\r\nI1008 11:27:25.705103 11844 net.cpp:129] Top shape: 4 7 (28)\r\nI1008 11:27:25.705103 11844 net.cpp:137] Memory required for data: 224338840\r\nI1008 11:27:25.705103 11844 layer_factory.hpp:77] Creating layer loss3/loss3\r\nI1008 11:27:25.705103 11844 net.cpp:84] Creating Layer loss3/loss3\r\nI1008 11:27:25.705103 11844 net.cpp:406] loss3/loss3 <- loss3/SLclassifier\r\nI1008 11:27:25.705103 11844 net.cpp:406] loss3/loss3 <- label_data_1_split_2\r\nI
…
  name: ""cifar""
  type: DATA
  top: ""data""
  top: ""label""
  data_param {
    source: ""examples/cifar10/cifar10_train_lmdb""
    batch_size: 100
    backend: LMDB
  }
  transform_param {
    mean_file: ""examples/cifar10/mean.binaryproto""
  }
  include: { phase: TRAIN }
}
layers {
  name: ""cifar""
  type: DATA
  top: ""data""
  top: ""label""
  data_param {
    source: ""examples/cifar10/cifar10_test_lmdb""
    batch_size: 100
    backend: LMDB
  }
  transform_param {
    mean_file: ""examples/cifar10/mean.binaryproto""
  }
  include: { phase: TEST }
}
layers {
  name: ""conv1""
  type: CONVOLUTION
  bottom: ""data""
  top: ""conv1""
  blobs_lr: 1
  blobs_lr: 2
  convolution_param {
    num_output: 32
    pad: 2
    kernel_size: 5
    stride: 1
    weight_filler {
      type: ""constant""
      value: 0.001
    }
    bias_filler {
      type: ""constant""
      value: 0.001
    }
  }
}
layers {
  name: ""relu1""
  type: RELU
  bottom: ""conv1""
  top: ""relu1""
}
layers {
  name: ""pool1""
  type: POOLING
  bottom: ""relu1""
  top: ""pool1""
  pooling_param {
    pool: MAX
    kernel_size: 2
    stride: 2
  }
}
layers {
  name: ""ip1""
  type: INNER_PRODUCT
  bottom: ""pool1""
  top: ""ip1""
  blobs_lr: 1
  blobs_lr: 2
  inner_product_param {
    num_output: 10
    weight_filler {
      type: ""constant""
      value: 0.001
    }
    bias_filler {
      type: ""constant""
      value: 0.001
    }
  }
}
layers {
  name: ""accuracy""
  type: ACCURACY
  bottom: ""ip1""
  bottom: ""label""
  top: ""accuracy""
  include: { phase: TEST }
}
layers {
  name: ""loss""
  type: SOFTMAX_LOSS
  bottom: ""ip1""
  bottom: ""label""
  top: ""loss""
## }
",,"[""## Answer: Setting weight to constant values may not be read by GPU version\n\nIt seems that the problem is about setting weights and bias to constant value is not read by GPU version.\n\nAfter setting the weight to Gaussian with std 0.001, things solve. GPU and CPU now looks like previous GPU version's accuracy. Here it is.\n\nGPU:\nI0619 14:12:49.797749  2624
…
- [ ] attached relevant logs/config files (tick if not applicable)
",,[],[],[],0,0
78,caffe,6832,open,Check failed: axis_index < num_axes() (1 vs. 0) axis 1 out of range for 0-D Blob with shape (0),"When I run the code from GitHubwhich is Face_Alignment_Two_Stage_Re-initialization,I got the following error:
I0911 08:08:29.921020 12228 layer_factory.hpp:88] Creating layer input
I0911 08:08:29.922020 12228 net.cpp:100] Creating Layer input
I0911 08:08:29.922020 12228 net.cpp:418] input -> data
I0911 08:08:29.923020 12228 net.cpp:150] Setting up input
I0911 08:08:29.924021 12228 net.cpp:157] Top shape: 1 3 448 448 (602112)
I0911 08:08:29.927022 12228 net.cpp:165] Memory required for data: 2408448
I0911 08:08:29.927022 12228 layer_factory.hpp:88] Creating layer data_input_0_split
I0911 08:08:29.928025 12228 net.cpp:100] Creating Layer data_input_0_split
I0911 08:08:29.928025 12228 net.cpp:444] data_input_0_split <- data
I0911 08:08:29.929024 12228 net.cpp:418] data_input_0_split -> data_input_0_split_0
I0911 08:08:29.930024 12228 net.cpp:418] data_input_0_split -> data_input_0_split_1
I0911 08:08:29.930024 12228 net.cpp:150] Setting up data_input_0_split
I0911 08:08:29.930024 12228 net.cpp:157] Top shape: 1 3 448 448 (602112)
I0911 08:08:29.932025 12228 net.cpp:157] Top shape: 1 3 448 448 (602112)
I0911 08:08:29.932025 12228 net.cpp:165] Memory required for data: 7225344
I0911 08:08:29.932025 12228 layer_factory.hpp:88] Creating layer downsample_data
I0911 08:08:29.932025 12228 net.cpp:100] Creating Layer downsample_data
I0911 08:08:29.932025 12228 net.cpp:444] downsample_data <- data_input_0_split_0
I0911 08:08:29.932025 12228 net.cpp:418] downsample_data -> downsample_data
I0911 08:08:29.932025 12228 net.cpp:150] Setting up downsample_data
I0911 08:08:29.932025 12228 net.cpp:157] Top shape: (0)
I0911 08:08:29.932025 12228 net.cpp:165] Memory required for data: 7225344
I0911 08:08:29.933027 12228 layer_factory.hpp:88] Creating layer net1_conv1
I0911 08:08:29.933027 12228 net.cpp:100] Creating Layer net1_conv1
I0911 08:08:29.933027 12228 net.cpp:444] net1_conv1 <- downsample_data
I0911 08:08:29.933027 12228 net.cpp:418] net1_conv1 -> net1_conv1
F0911 08:08:29.933027 12228 blob.hpp:122] Check failed: axis_index < num_axes() (1 vs. 0) axis 1 out of range for 0-D Blob with shape (0)
*** Check failure stack trace: ***

The part of the deploy is as follows.

name: ""facial_point_net""
input: ""data""
input_dim: 1
input_dim: 3
input_dim: 448
input_dim: 448

layer {
  name: ""downsample_data""
  type: ""SubsamplePooling""
  bottom: ""data""
  top: ""downsample_data""
  subsample_pooling_param {
    output_H: 60
    output_W: 60
  }
}
##########################################
layer {
  name: ""net1_conv1""
  type: ""Convolution""
  bottom: ""downsample_data""
  top: ""net1_conv1""
  param {
    lr_mult: 1
    decay_mult: 1
  }
  param {
    lr_mult: 2
    decay_mult: 0
  }
  convolution_param {
    num_output: 20
    pad: 0
    kernel_size: 5
    stride: 1
    weight_filler {
      type: ""gaussian""
      std: 0.01
    }
    bias_filler {
      type: ""constant""
      value: 0
    }
  }
}
layer {
  name: ""net1_PReLU1""
  type: ""PReLU""
  bottom: ""net1_conv1""
  top: ""net1_conv1""
}

layer {
  name: ""net1_pool1""
  type: ""Pooling""
  bottom: ""net1_conv1""
  top: ""net1_pool1""
  pooling_param {
    pool: MAX
    kernel_size: 2
    stride: 2
  }
}

Does anyone know what the problem is ?",,[],[],[],0,0
79,caffe,5589,open,why scale within transform_param of data layer used in MNIST example is not applied in ImageNet example?,"I try to train alexnet over ImageNet. I read its train_val.prototxt, its transform_param is as below:

…
