…
I don't know what's happening and I don't know if these networks are more different that I thought.

Any clue regarding this issue?

**Note**: I asked this question in Stackoverflow but I think it could be an issue regarding Keras implementation. Link [here](https://stackoverflow.com/questions/46491418/why-2-almost-equal-keras-cnn-returns-2-quite-different-results)",,[],"['\r\n_________________________________________________________________\r\nLayer (type)                 Output Shape              Param #   \r\n=================================================================\r\ninput_1 (InputLayer)         (None, 500)               0         \r\n_________________________________________________________________\r\nmasking_1 (Masking)          (None, 500)               0         \r\n_________________________________________________________________\r\nembedding_1 (Embedding)      (None, 500, 100)          64025600  \r\n_________________________________________________________________\r\nconv1d_1 (Conv1D)            (None, 497, 128)          51328     \r\n_________________________________________________________________\r\naverage_pooling1d_1 (Average (None, 62, 128)           0         \r\n_________________________________________________________________\r\ndropout_1 (Dropout)          (None, 62, 128)           0         \r\n_________________________________________________________________\r\nconv1d_2 (Conv1D)            (None, 61, 256)           65792     \r\n_________________________________________________________________\r\ndropout_2 (Dropout)          (None, 61, 256)           0         \r\n_________________________________________________________________\r\nconv1d_3 (Conv1D)            (None, 54, 32)            65568     \r\n_________________________________________________________________\r\nglobal_max_pooling1d_1 (Glob (None, 32)                0         \r\n_________________________________________________________________\r\ndense_1 (Dense)              (None, 16)                528       \r\n_________________________________________________________________\r\ndropout_3 (Dropout)          (None, 16)                0         \r\n_________________________________________________________________\r\ndense_2 (Dense)              (None, 2)                 34        \r\n=================================================================\r\n', '\r\nP       0.875457875\r\nR       0.878676471\r\nF1      0.87706422\r\nAUC-ROC 0.906102654\r\n', '\r\n_________________________________________________________________\r\nLayer (type)                 Output Shape              Param #   \r\n=================================================================\r\ninput_1 (InputLayer)         (None, 3, 500)            0         \r\n_________________________________________________________________\r\nlambda_1 (Lambda)            (None, 500)               0         \r\n_________________________________________________________________\r\nmasking_1 (Masking)          (None, 500)               0         \r\n_________________________________________________________________\r\nembedding_1 (Embedding)      (None, 500, 100)          64025600  \r\n_________________________________________________________________\r\nconv1d_1 (Conv1D)            (None, 497, 128)          51328     \r\n_________________________________________________________________\r\naverage_pooling1d_1 (Average (None, 62, 128)           0         \r\n_________________________________________________________________\r\ndropout_1 (Dropout)          (None, 62, 128)           0         \r\n_________________________________________________________________\r\nconv1d_2 (Conv1D)            (None, 61, 256)           65792     \r\n_________________________________________________________________\r\ndropout_2 (Dropout)          (None, 61, 256)           0         \r\n_________________________________________________________________\r\nconv1d_3 (Conv1D)            (None, 54, 32)            65568     \r\n_________________________________________________________________\r\nglobal_max_pooling1d_1 (Glob (None, 32)                0         \r\n_________________________________________________________________\r\ndense_1 (Dense)              (None, 16)                528       \r\n_________________________________________________________________\r\ndropout_3 (Dropout)          (None, 16)                0         \r\n_________________________________________________________________\r\ndense_2 (Dense)              (None, 2)                 34        \r\n=================================================================\r\n']",[],1,0
91,keras,863,closed,Keras slow with regularization?,"I noticed that when I include weight regularization such as L2 weight regularization, it significantly slows down training. Can someone provide an explanation for why that is?
",,"['Adding regularization will significantly complicate the computational gra
…
",,"['Hi @jcgarciaca,\r\nI have similar architecture and the same error.\r\nHave you resolved this issue? Any ideas?\r\nThanks!!', 'Hi @hanama \r\nI changed keras version and it worked', '> Hi @hanama\r\n> I changed keras version and it worked\r\n\r\nwhich version you  changed to?']","['\r\n__________________________________________________________________________________________________\r\nLayer (type)                    Output Shape         Param #     Connected to                     \r\n==================================================================================================\r\ninput_9 (InputLayer)            (None, 120, 120, 3)  0                                            \r\n__________________________________________________________________________________________________\r\ninput_10 (InputLayer)           (None, 120, 120, 3)  0                                            \r\n__________________________________________________________________________________________________\r\nsequential_4 (Sequential)       (None, 256)          15894592    input_9[0][0]                    \r\n                                                                 input_10[0][0]                   \r\n__________________________________________________________________________________________________\r\nconcatenate_3 (Concatenate)     (None, 512)          0           sequential_4[1][0]               \r\n                                                                 sequential_4[2][0]               \r\n__________________________________________________________________________________________________\r\ndense_9 (Dense)                 (None, 64)           32832       concatenate_3[0][0]              \r\n__________________________________________________________________________________________________\r\ndropout_11 (Dropout)            (None, 64)           0           dense_9[0][0]                    \r\n__________________________________________________________________________________________________\r\ndense_10 (Dense)                (None, 2)            130         dropout_11[0][0]                 \r\n==================================================================================================\r\nTotal params: 15,927,554\r\nTrainable params: 8,292,290\r\nNon-trainable params: 7,635,264\r\n', ""\r\n---------------------------------------------------------------------------\r\nIndexError                                Traceback (most recent call 
…
age_right], outputs=pred)\r\nmodel.summary()\r\n\r\nfrom keras import optimizers\r\n\r\nmodel.compile(loss=""categorical_crossentropy"", optimizer=optimizers.Adam(lr=2e-5), metrics=[""acc""])\r\n\r\nmodel.save(\'test_vgg16.h5\')\r\n\r\nmodel2 = load_model(\'test_vgg16.h5\')\r\n', ""\r\nconv_base.save('conv.h5')\r\nm = load_model('conv.h5')\r\nm.summary()\r\n\r\n_________________________________________________________________\r\nLayer (type)                 Output Shape              Param #   \r\n=================================================================\r\nvgg16 (Model)                (None, 3, 3, 512)         14714688  \r\n_________________________________________________________________\r\nflatten_4 (Flatten)          (None, 4608)              0         \r\n_________________________________________________________________\r\ndropout_9 (Dropout)          (None, 4608)              0         \r\n_________________________________________________________________\r\ndense_8 (Dense)              (None, 256)               1179904   \r\n_________________________________________________________________\r\ndropout_10 (Dropout)         (None, 256)               0         \r\n=================================================================\r\nTotal params: 15,894,592\r\nTrainable params: 8,259,328\r\nNon-trainable params: 7,635,264\r\n_________________________________________________________________\r\n""]","['load_model', 'conv_base']",0,0
138,keras,9591,closed, The size of the output layer 'chairConfidence' in the neural network does not match the number of classes in the classifier.,"Hi All,
…
ights)\r\nactivations_weights = RepeatVector(64)(activations_weights)\r\nactivations_weights = Permute([2, 1])(activations_weights)\r\nactivations_weighted = merge([activations, activations_weights], mode='mul')\r\nsent_representation = Lambda(lambda x: K.sum(x, axis=-2), output_shape=(64,))(activations_weighted)\r\n\r\nprobabilities = Dense(classes)(sent_representation)\r\nprobabilities = Activation('softmax')(probabilities)\r\n``` \r\ngives this:\r\n```\r\n____________________________________________________________________________________________________\r\nlstm_1 (LSTM)                    (None, 50, 64)        67840       embedding_1[0][0]                \r\n____________________________________________________________________________________________________\r\ndense_1 (Dense)                  (None, 50, 1)         65          lstm_1[0][0]                     \r\n____________________________________________________________________________________________________\r\nflatten_1 (Flatten)              (None, 50)            0           dense_1[0][0]                    \r\n____________________________________________________________________________________________________\r\nactivation_1 (Activation)        (None, 50)            0           flatten_1[0][0]                  \r\n____________________________________________________________________________________________________\r\nrepeatvector_1 (RepeatVector)    (None, 64, 50)        0           activation_1[0][0]               \r\n____________________________________________________________________________________________________\r\npermute_1 (Permute)              (None, 50, 64)        0           repeatvector_1[0][0]             \r\n____________________________________________________________________________________________________\r\nmerge_1 (Merge)                  (None, 50, 64)        0           lstm_1[0][0]                     \r\n                                                                   permute_1[0][0]                  \r\n____________________________________________________________________________________________________\r\nlambda_1 (Lambda)                (None, 64)            0           merge_1[0][0]                    \r\n____________________________________________________________________________________________________\r\ndense_2 (Dense)                  (None, 3)             195         lambda_1[0][0]                   \r\n____________________________________________________________________________________________________\r\nactivation_2 (Activation)        (None, 3)             0           dense_2[0][0]                    \r\n```\r\nand changing to:\r\n```python \r\nactivations = LSTM(64, return_sequences=True, consume_less='mem')(words)\r\nactivations_weights = Dense(max_length, activation='tanh')(activations)\r\n...\r\n```\r\ngives the following error:\r\n```\r\nValueError: Only layers of same output shape can be merged using mul mode. Layer shapes: [(None, 50, 64), (No
…
= merge([activations, activations_weights], mode='mul')\r\nsent_representation = Lambda(lambda x: K.sum(x, axis=-2), output_shape=(64,))(activations_weighted)\r\n```\r\nwill i have the desired behavior? \r\n\r\n2 - i don't understand why Flatten will do the same thing. It will just convert the 2D tensor with the timesteps to a big 1D tensor and then by applying the Dense i will have lost the difference between the timesteps.\r\nHere is what i mean:\r\n```\r\n____________________________________________________________________________________________________\r\nlstm_1 (LSTM)                    (None, 50, 64)        67840       embedding_1[0][0]                \r\n____________________________________________________________________________________________________\r\nflatten_1 (Flatten)              (None, 3200)          0           lstm_1[0][0]                     \r\n____________________________________________________________________________________________________\r\ndense_1 (Dense)                  (None, 50)            160050      flatten_1[0][0]                  \r\n____________________________________________________________________________________________________\r\nactivation_1 (Activation)        (None, 50)            0           dense_1[0][0]                    \r\n____________________________________________________________________________________________________\r\nrepeatvector_1 (RepeatVector)    (None, 64, 50)        0           activation_1[0][0]               \r\n____________________________________________________________________________________________________\r\npermute_1 (Permute)              (None, 50, 64)        0           repeatvector_1[0][0]             \r\n____________________________________________________________________________________________________\r\nmerge_1 (Merge)                  (None, 50, 64)        0           lstm_1[0][0]                     \r\n                                                                   permute_1[0][0]                  \r\n____________________________________________________________________________________________________\r\nlambda_1 (Lambda)                (None, 64)            0           merge_1[0][0]                    \r\n____________________________________________________________________________________________________\r\n```\r\n"", ""@baziotis\r\n\r\n1. No, `TimeDistributed(Dense)` hasn't changed and will do the same thing in 1.1.2.\r\n\r\n2. Yes, that's exactly what I was trying to achieve: having a different weight for each index at each timestep, which is exactl
…
essage). Does it work with `TimeDistributed(Dense)`? If so, that would seem like an oversight when they adapted Dense for 3d inputs maybe..."", '@mbollmann Why use do i have to use `TimeDistributed(Dense)`? Look at the shape of the final Dense input. It is just an 1D Tensor.... The attention layer just compresses the timesteps to a single vector.\r\n```\r\nLayer (type)                     Output Shape          Param #     Connected to                     \r\n====================================================================================================\r\ninput_1 (InputLayer)             (None, 50)            0                                            \r\n____________________________________________________________________________________________________\r\nembedding_1 (Embedding)          (None, 50, 300)       150000900   input_1[0][0]                    \r\n____________________________________________________________________________________________________\r\nlstm_1 (LSTM)                    (None, 50, 100)       160400      embedding_1[0][0]                \r\n____________________________________________________________________________________________________\r\nattention_1 (Attention)          (None, 100)           150         lstm_1[0][0]                     \r\n____________________________________________________________________________________________________\r\ndense_1 (Dense)                  (None, 3)             303         attention_1[0][0]                \r\n____________________________________________________________________________________________________\r\nactivation_1 (Activation)        (None, 3)             0           dense_1[0][0]                    \r\n====================================================================================================\r\n```', ""Also i tried `masking=True`,  just the LSTM with `return_sequences=False` and then the final Dense and it works. So this means that my Layer should be doing something with the mask but i don't know what..."", ""@baziotis Sorry, my bad. I *t
…
nesterov=True)\r\n# define model\r\n%time model.compile(loss='categorical_crossentropy', optimizer = sgd , metrics=['accuracy'])\r\n\r\n"", ""@cbaziotis I've been your `AttentionWithContext` code at https://gist.github.com/cbaziotis/7ef97ccf71cbc14366835198c09809d2 \r\n\r\nFor some reason the output shape is wrong. See the `model.summary()` output below:\r\n```\r\n_________________________________________________________________\r\nLayer (type)                 Output Shape              Param #\r\n=================================================================\r\ntext_input (InputLayer)      (None, 100)               0\r\n_________________________________________________________________\r\nembedding_1 (Embedding)      (None, 100, 100)          2361000\r\n_________________________________________________________________\r\nmasking_1 (Masking)          (None, 100, 100)          0\r\n_________________________________________________________________\r\nbidirectional_1 (Bidirection (None, 100, 256)          175872\r\n_________________________________________________________________\r\nattention_with_context_1 (At (None, 100, 256)          66048\r\n_________________________________________________________________\r\noutput (Dense)               (None, 100, 34)           8738\r\n=================================================================\r\n```\r\n\r\nShouldn't `attention_with_context_1` have an output shape of `(None, 256)` as listed in your documentation for your function? It should output a 2D tensor of shape `(samples, features)`. The peculiar thing is when I retrieve the layer and get the output it shows the correct shape:\r\n```\r\n>>> att_layer.output\r\n
…
g shape\r\n>>> att_layer.output_shape\r\n(None, 100, 256)\r\n```\r\nAny ideas?"", '@cbaziotis Found the issue. Turns out if you write a custom layer and it modifies the input shape, you need a `compute_output_shape` method. See [here](https://gist.github.com/nigeljyng/37552fb4869a5e81338f82b338a304d3) for a fork that now works.\r\n\r\n```\r\n>>> model.summary()\r\n_________________________________________________________________\r\nLayer (type)                 Output Shape              Param #\r\n=================================================================\r\ntext_input (InputLayer)      (None, 100)               0\r\n_________________________________________________________________\r\nembedding_2 (Embedding)      (None, 100, 100)          2361000\r\n_________________________________________________________________\r\nmasking_4 (Masking)          (None, 100, 100)          0\r\n_________________________________________________________________\r\nbidirectional_5 (Bidirection (None, 100, 256)          175872\r\n_________________________________________________________________\r\nattention_with_context_4 (At (None, 256)               66048\r\n_________________________________________________________________\r\noutput (Dense)               (None, 34)                8738\r\n=================================================================\r\n```', 'OK I did not read the whole discussion, but Zhou, Peng, et al. says H is a matrix where every column has the dimensionality of a word vector. Why is that? I think it should be the units of LSTM layer, which can be chosen to be the same as word vector dimensionality, of course, but it does not have to be so?', 'Hey, hav
…
Using gpu device 0: GeForce GTX 1080 (CNMeM is disabled, cuDNN 6021)\r\n/usr/local/lib/python2.7/dist-packages/theano/sandbox/cuda/__init__.py:631: UserWarning: Your cuDNN version is more recent than the one Theano officially supports. If you see any problems, try updating Theano or downgrading cuDNN to version 5.1.\r\n  warnings.warn(warn)\r\nBuild model...\r\n_________________________________________________________________\r\nLayer (type)                 Output Shape              Param #   \r\n=================================================================\r\nembedding_1 (Embedding)      (None, 1000, 500)         1000000   \r\n_________________________________________________________________\r\nconv1d_1 (Conv1D)            (None, 998, 50)           75050     \r\n_________________________________________________________________\r\nglobal_max_pooling1d_1 (Glob (None, 50)                0         \r\n_________________________________________________________________\r\ndense_1 (Dense)              (None, 512)               26112     \r\n_________________________________________________________________\r\ndropout_1 (Dropout)          (None, 512)               0         \r\n_________________________________________________________________\r\ndense_2 (Dense)              (None, 512)               262656    \r\n_________________________________________________________________\r\ndropout_2 (Dropout)          (None, 512)               0         \r\n_________________________________________________________________\r\ndense_3 (Dense)              (None, 4)                 2052      \r\n=================================================================\r\nTotal params: 1,365,870\r\nTrainable params: 1,365,870\r\nNon-trainable params: 0\r\n_________________________________________________________________\r\nTrain...\r\n1 #include <Python.h>\r\n2 #include <iostream>\r\n3 #include ""theano_mod_helper.h""\r\n4 #include ""cuda_ndarray.cuh""\r\n5 #include <math.h>\r\n6 #includ
…
ate should be set to `rate = 1 - keep_prob`.\r\nE:\\PycharmProjects\\ImageProcessing\\Unet.py:91: UserWarning: Update your `Model` call to the Keras 2 API: `Model(inputs=Tensor(""in..., outputs=Tensor(""co...)`\r\n  model = Model(input=inputs, output=conv10)\r\n__________________________________________________________________________________________________\r\nLayer (type)                    Output Shape         Param #     Connected to                     \r\n==================================================================================================\r\ninput_1 (InputLayer)            (None, 256, 256, 4)  0                                            \r\n__________________________________________________________________________________________________\r\nconv2d_1 (Conv2D)               (None, 256, 256, 64) 2368        input_1[0][0]                    \r\n__________________________________________________________________________________________________\r\nconv2d_2 (Conv2D)               (None, 256, 256, 64) 36928       conv2d_1[0][0]                   \r\n__________________________________________________________________________________________________\r\nbatch_normalization_1 (BatchNor (None, 256, 256, 64) 256         conv2d_2[0][0]                   \r\n__________________________________________________________________________________________________\r\nmax_pooling2d_1 (MaxPooling2D)  (None, 128, 128, 64) 0           batch_normalization_1[0][0]      \r\n__________________________________________________________________________________________________\r\nconv2d_3 (Conv2D)               (None, 128, 128, 128 73856       max_pooling2d_1[0][0]            \r\n__________________________________________________________________________________________________\r\nconv2d_4 (Conv2D)               (None, 128, 128, 128 147584      conv2d_3[0][0]                   \r\n__________________________________________________________________________________________________\r\nbatch_normalization_2 (BatchNor (None, 128, 128, 128 512         conv2d_4[0][0]                   \r\n__________________________________________________________________________________________________\r\nmax_pooling2d_2 (MaxPooling2D)  (None, 64, 64, 128)  0           batch_normalization_2[0][0]      \r\n__________________________________________________________________________________________________\r\nconv2d_5 (Conv2D)               (None, 64, 64, 256)  295168      max_pooling2d_2[0][0]            \r\n__________________________________________________________________________________________________\r\nconv2d_6 (Conv2D)               (None, 64, 64, 256)  590080      conv2d_5[0][0]                   \r\n__________________________________________________________________________________________________\r\nbatch_normalization_3 (BatchNor (None, 64, 64, 256)  1024        conv2d_6[0][0]                   \r\n__________________________________________________________________________________________________\r\nmax_pooling2d_3 (MaxPooling2D)  (None, 32, 32, 256)  0           batch_normalization_3[0][0]      \r\n__________________________________________________________________________________________________\r\nconv2d_7 (Conv2D)               (None, 32, 32, 512)  1180160     max_pooling2d_3[0][0]            \r\n__________________________________________________________________________________________________\r\nconv2d_8 (Conv2D)               (None, 32, 32, 512)  2359808     conv2d_7[0][0]                   \r\n__________________________________________________________________________________________________\r\nbatch_normalization_4 (BatchNor (None, 32, 32, 512)  2048        conv2d_8[0][0]                   \r\n__________________________________________________________________________________________________\r\ndropout_1 (Dropout)             (None, 32, 32, 512)  0           batch_normalization_4[0][0]      \r\n__________________________________________________________________________________________________\r\nmax_pooling2d_4 (MaxPooling2D)  (None, 16, 16, 512)  0           dropout_1[0][0]                  \r\n__________________________________________________________________________________________________\r\nconv2d_9 (Conv2D)               (None, 16, 16, 1024) 4719616     max_pooling2d_4[0][0]            \r\n__________________________________________________________________________________________________\r\nconv2d_10 (Conv2D)              (None, 16, 16, 1024) 9438208     conv2d_9[0][0]                   \r\n__________________________________________________________________________________________________\r\nbatch_normalization_5 (BatchNor (None, 16, 16, 1024) 4096        conv2d_10[0][0]                  \r\n__________________________________________________________________________________________________\r\ndropout_2 (Dropout)             (None, 16, 16, 1024) 0           batch_normalization_5[0][0]      \r\n__________________________________________________________________________________________________\r\nup_sampling2d_1 (UpSampling2D)  (None, 32, 32, 1024) 0           dropout_2[0][0]                  \r\n__________________________________________________________________________________________________\r\nconv2d_11 (Conv2D)              (None, 32, 32, 512)  2097664     up_sampling2d_1[0][0]            \r\n__________________________________________________________________________________________________\r\nconcatenate_1 (Concatenate)     (None, 32, 32, 1024) 0           dropout_1[0][0]                  \r\n                                                                 conv2d_11[0][0]                  \r\n__________________________________________________________________________________________________\r\nconv2d_12 (Conv2D)              (None, 32, 32, 512)  4719104     concatenate_1[0][0]              \r\n__________________________________________________________________________________________________\r\nconv2d_13 (Conv2D)              (None, 32, 32, 512)  2359808     conv2d_12[0][0]                  \r\n__________________________________________________________________________________________________\r\nbatch_normalization_6 (BatchNor (None, 32, 32, 512)  2048        conv2d_13[0][0]                  \r\n__________________________________________________________________________________________________\r\nup_sampling2d_2 (UpSampling2D)  (None, 64, 64, 512)  0           batch_normalization_6[0][0]      \r\n__________________________________________________________________________________________________\r\nconv2d_14 (Conv2D)              (None, 64, 64, 256)  524544      up_sampling2d_2[0][0]            \r\n__________________________________________________________________________________________________\r\nconcatenate_2 (Concatenate)     (None, 64, 64, 512)  0           batch_normalization_3[0][0]      \r\n                                                                 conv2d_14[0][0]                  \r\n__________________________________________________________________________________________________\r\nconv2d_15 (Conv2D)              (None, 64, 64, 256)  1179904     concatenate_2[0][0]              \r\n__________________________________________________________________________________________________\r\nconv2d_16 (Conv2D)              (None, 64, 64, 256)  590080      conv2d_15[0][0]                  \r\n__________________________________________________________________________________________________\r\nbatch_normalization_7 (BatchNor (None, 64, 64, 256)  1024        conv2d_16[0][0]                  \r\n__________________________________________________________________________________________________\r\nup_sampling2d_3 (UpSampling2D)  (None, 128, 128, 256 0           batch_normalization_7[0][0]      \r\n__________________________________________________________________________________________________\r\nconv2d_17 (Conv2D)              (None, 128, 128, 
…
128, 128 147584      conv2d_18[0][0]                  \r\n__________________________________________________________________________________________________\r\nbatch_normalization_8 (BatchNor (None, 128, 128, 128 512         conv2d_19[0][0]                  \r\n__________________________________________________________________________________________________\r\nup_sampling2d_4 (UpSampling2D)  (None, 256, 256, 128 0           batch_normalization_8[0][0]      \r\n__________________________________________________________________________________________________\r\nconv2d_20 (Conv2D)              (None, 256, 256, 64) 32832       up_sampling2d_4[0][0]            \r\n__________________________________________________________________________________________________\r\nconcatenate_4 (Concatenate)     (None, 256, 256, 128 0           batch_normalization_1[0][0]      \r\n                                                                 conv2d_20[0][0]                  \r\n__________________________________________________________________________________________________\r\nconv2d_21 (Conv2D)              (None, 256, 256, 64) 73792       concatenate_4[0][0]              \r\n__________________________________________________________________________________________________\r\nconv2d_22 (Conv2D)              (None, 256, 256, 64) 36928       conv2d_21[0][0]                  \r\n__________________________________________________________________________________________________\r\nconv2d_23 (Conv2D)              (None, 256, 256, 16) 9232        conv2d_22[0][0]                  \r\n__________________________________________________________________________________________________\r\nbatch_normalization_9 (BatchNor (None, 256, 256, 16) 64          conv2d_23[0][0]                  \r\n__________________________________________________________________________________________________\r\nconv2d_24 (Conv2D)              (None, 256, 256, 16) 272         batch_normalization_9[0][0]      \r\n==================================================================================================\r\nTotal params: 31,053,344\r\nTrainable params: 31,047,552\r\nNon-trainable params: 5,792\r\n__________________________________________________________________________________________________\r\nTraceback (most recent call last):\r\n  File ""E:/PycharmPr
…
HINT: Re-running with most Theano optimization disabled could give you a back-trace of when this node was created. This can be done with by setting the Theano flag 'optimizer=fast_compile'. If that does not work, Theano optimizations can be disabled with 'optimizer=None'.
HINT: Use the Theano flag 'exception_verbosity=high' for a debugprint and storage map footprint of this apply node.


The nework parameters are listed in the following table:


__________________________________________________________________________________________________
Layer (type)                    Output Shape         Param #     Connected to                     
==================================================================================================
input_1 (InputLayer)            (None, 2721, 5)      0                                            
__________________________________________________________________________________________________
input_2 (InputLayer)            (None, 2721, 23)     0                                            
__________________________________________________________________________________________________
masking_1 (Masking)             (None, 2721, 5)      0           input_1[0][0]                    
__________________________________________________________________________________________________
masking_2 (Masking)             (None, 2721, 23)     0           input_2[0][0]                    
__________________________________________________________________________________________________
time_distributed_1 (TimeDistrib (None, 2721, 16)     288         masking_1[0][0]                  
__________________________________________________________________________________________________
time_distributed_3 (TimeDistrib (None, 2721, 64)     4608        masking_2[0][0]                  
__________________________________________________________________________________________________
dropout_1 (Dropout)             (None, 2721, 16)     0           time_distributed_1[0][0]         
__________________________________________________________________________________________________
dropout_4 (Dropout)             (None, 2721, 64)     0           time_distributed_3[0][0]         
__________________________________________________________________________________________________
time_distributed_2 (TimeDistrib (None, 2721, 16)     816         dropout_1[0][0]                  
__________________________________________________________________________________________________
time_distributed_4 (TimeDistrib (None, 2721, 64)     12480       dropout_4[0][0]                  
__________________________________________________________________________________________________
dropout_2 (Dropout)             (None, 2721, 16)     0           time_distributed_2[0][0]         
__________________________________________________________________________________________________
dropout_5 (Dropout)             (None, 2721, 64)     0           time_distributed_4[0][0]         
__________________________________________________________________________________________________
lstm_1 (LSTM)                   (None, 2721, 16)     2112        dropout_2[0][0]                  
__________________________________________________________________________________________________
lstm_3 (LSTM)                   (None, 2721, 64)     33024       dropout_5[0][0]                  
__________________________________________________________________________________________________
dropout_3 (Dropout)             (None, 2721, 16)     0           lstm_1[0][0]                     
__________________________________________________________________________________________________
dropout_6 (Dropout)             (None, 2721, 64)     0           lstm_3[0][0]                     
__________________________________________________________________________________________________
bidirectional_1 (Bidirectional) (None, 2721, 32)     4224        dropout_3[0][0]                  
__________________________________________________________________________________________________
bidirectional_2 (Bidirectional) (None, 2721, 128)    66048       dropout_6[0][0]                  
__________________________________________________________________________________________________
concatenate_1 (Concatenate)     (None, 2721, 160)    0           bidirectional_1[0][0]            
                                                                 bidirectional_2[0][0]            
__________________________________________________________________________________________________
dropout_7 (Dropout)             (None, 2721, 160)    0           concatenate_1[0][0]              
__________________________________________________________________________________________________
bidirectional_3 (Bidirectional) (None, 2721, 256)    295936      dropout_7[0][0]                  
__________________________________________________________________________________________________
dropout_8 (Dropout)             (None, 2721, 256)    0           bidirectional_3[0][0]            
__________________________________________________________________________________________________
bidirectional_4 (Bidirectional) (None, 2721, 256)    394240      dropout_8[0][0]                  
__________________________________________________________________________________________________
dropout_9 (Dropout)             (None, 2721, 256)    0           bidirectional_4[0][0]            
__________________________________________________________________________________________________
time_distributed_5 (TimeDistrib (None, 2721, 128)    98688       dropout_9[0][0]                  
__________________________________________________________________________________________________
dropout_10 (Dropout)            (None, 2721, 128)    0           time_distributed_5[0][0]         
__________________________________________________________________________________________________
time_distributed_6 (TimeDistrib (None, 2721, 2)      258         dropout_10[0][0]                 
__________________________________________________________________________________________________
activation_1 (Activation)       (None, 2721, 2)      0           time_distributed_6[0][0]         
==================================================================================================
Total params: 912,722
Trainable params: 912,722
Non-trainable params: 0
__________________________________________________________________________________________________


I am using theano 1.0.1. The GPU setting is printed below:
Using Theano backend.
…
conda2\\Lib\\site-packages\\keras\\models.py"", line 179, in load_model\r\n    model.optimizer.set_weights(optimizer_weight_values)\r\n  File ""C:\\Anaconda2\\Lib\\site-packages\\keras\\optimizers.py"", line 90, in set_weights\r\n    \'provided weight shape \' + str(w.shape))\r\nValueError: Optimizer weight shape (275L, 275L) not compatible with provided weight shape (1056, 275)\r\n']",[],0,0
334,keras,8423,closed,Use of Dense layer in imdb_cnn sample,"Here is the summary of the model in imdb_cnn sample, can anyone tell me what is the purpose of dense_6  layer?

embedding_6 (Embedding)      (None, 400, 50)           250000    
dropout_5 (Dropout)          (None, 400, 50)           0         
conv1d_4 (Conv1D)            (None, 398, 250)          37750     
global_max_pooling1d_5 (Glob (None, 250)               0         
**dense_6 (Dense)              (None, 250)               62750**     
dropout_6 (Dropout)          (None, 250)               0         
activation_5 (Activation)    (None, 250)               0         
dense_7 (Dense)              (None, 1)                 251       
activation_6 (Activation)    (None, 1)                 0         

Total params: 350,751
Trainable params: 350,751
Non-trainable params: 0
",,[],[],[],0,0
335,keras,11493,closed,Introduction of Sobolev training capability in Keras,"Hi,

This is a feature request that I think could be interesting for several users and I wish to share it, as I am not able to implement it.
In the field of scientific computing (especially Computational Fluid Dynamic), there are more and more attempts to use neural network to speed up expensive iterative computations. It can be done in two ways:
…
Let's I have 100 input data. My input layer uses a slinding windows equal to 10.

Here's my LSTM model : 

    inputs = tf.keras.Input(shape=(10,100))
    LSTM_1 = layers.LSTM(100, stateful=False, return_sequences=True)(inputs)
    FC_1 = layers.Dense(100)(LSTM_1)
    LSTM_2 = layers.LSTM(100, stateful=False, return_sequences=False)(FC_1)
    label = layers.Dense(5, activation='softmax')(LSTM_2)

Here's the model summary.

    Layer (type)                 Output Shape              Param #   
    =================================================================
    input (InputLayer)        (None, 10, 100)           0         
    _________________________________________________________________
    lstm_1 (LSTM)             (None, 10, 100)           80400     
    _________________________________________________________________
    dense (Dense)             (None, 10, 100)           10100     
    _________________________________________________________________
    lstm_2 (LSTM)             (None, 100)               80400     
    _________________________________________________________________
    label (Dense)             (None, 5)                1111      
    =================================================================
    Total params: 172,011
    Trainable params: 172,011
    Non-trainable params: 0
    _________________________________________________________________
    None

Below is the code to load data.

    h5_x = 'X.h5'
    h5_Y = 'Y.h5' 
    
    x_data = HDF5Matrix(h5_x, start=0, end=data_length)
    x_data = np.reshape(x_data,(data_length, 5))       
…
s example above, I\'d like to use the output from layer `dense_1` (after training).']","[""\r\nwith tf.device('/cpu:0'):\r\n    model = Model(inputs=[...], outputs=[...])\r\nparallel_model = multi_gpu_model(model, gpus=3)\r\nparallel_model.summary()\r\n"", '\r\n__________________________________________________________________________________________________\r\nLayer (type)                    Output Shape         Param #     Connected to                     \r\n==================================================================================================\r\ntext_input (InputLayer)         (None, 1)            0                                            \r\n__________________________________________________________________________________________________\r\nlambda_1 (Lambda)               (None, 1)            0           text_input[0][0]                 \r\n__________________________________________________________________________________________________\r\nlambda_2 (Lambda)               (None, 1)            0           text_input[0][0]                 \r\n__________________________________________________________________________________________________\r\nlambda_3 (Lambda)               (None, 1)            0           text_input[0][0]                 \r\n__________________________________________________________________________________________________\r\nmodel_1 (Model)                 (None, 2)            134326      lambda_1[0][0]                   \r\n                                                                 lambda_2[0][0]                   \r\n                                                                 lambda_3[0][0]                   \r\n__________________________________________________________________________________________________\r\ndense_3 (Concatenate)           (None, 2)            0           model_1[1][0]                    \r\n                                                                 model_1[2][0]                    \r\n                                                                 model_1[3][0]                    \r\n==================================================================================================\r\nTotal params: 134,326\r\nTrainable params: 134,326\r\nNon-trainable params: 0\r\n__________________________________________________________________________________________________\r\n', '\r\nLayer (type)                 Output Shape              Param #   \r\n=================================================================\r\ntext_input (InputLayer)      (None, 1)                 0         \r\n_________________________________________________________________\r\nelmo_embedding_layer_1 (Elmo (None, 450, 1024)         4         \r\n_________________________________________________________________\r\ngru_1 (GRU)                  (None, 40)                127800    \r\n_________________________________________________________________\r\ndense_1 (Dense)              (None, 70)                2870      \r\n_________________________________________________________________\r\ndense_2 (Dense)              (None, 50)                3550      \r\n_________________________________________________________________\r\ndense_3 (Dense)              (None, 2)                 102       \r\n=================================================================\r\nTotal params: 134,326\r\nTrainable params: 134,326\r\nNon-trainable params: 0\r\n_________________________________________________________________\r\n']","['multi_gpu_model', 'parallel_model.summary()', 'summary()', 'model.summary()', 'save()']",0,0
398,keras,9336,closed,RNN with dropout / recurrent dropout and 1 timestep shows warning with CNTK,"Hello,
…
odel1(x)\r\ny2 = Dense(units=64)(y1)\r\nmodel2 = Model(inputs=x, outputs=y2)\r\nmodel2.compile(optimizer=Adam(), loss=\'categorical_crossentropy\')\r\n\r\nprint(""MODEL 2"")\r\nmodel2.summary()\r\n\r\nmodel1.trainable = True\r\nprint(""MODEL 2 after"")\r\nmodel2.summary()\r\n', '\r\n_________________________________________________________________\r\nMODEL 2\r\n_________________________________________________________________\r\nLayer (type)                 Output Shape              Param #   \r\n=================================================================\r\ninput_2 (InputLayer)         (None, 100)               0         \r\n_________________________________________________________________\r\nmodel_1 (Model)              (None, 32)                3232      \r\n_________________________________________________________________\r\ndense_2 (Dense)              (None, 64)                2112      \r\n=================================================================\r\nTotal params: 5,344\r\nTrainable params: 2,112\r\nNon-trainable params: 3,232\r\n_________________________________________________________________\r\nMODEL 2 after\r\n_________________________________________________________________\r\nLayer (type)                 Output Shape              Param #   \r\n=================================================================\r\ninput_2 (InputLayer)         (None, 100)               0         \r\n_________________________________________________________________\r\nmodel_1 (Model)              (None, 32)                3232      \r\n_________________________________________________________________\r\ndense_2 (Dense)              (None, 64)                2112      \r\n=================================================================\r\nTotal params: 5,344\r\nTrainable params: 5,344\r\nNon-trainable params: 0\r\n']","['model2', 'model2.summary()', 'summary()', 'model1.trainable=True']",0,0
457,keras,3241,closed,Model Summary shape not correct.,"I have a vector  of size  and  of size . I can compute the dot product to get a a vector of size . However, the model summary shape does not agree with the expected shape. Code below should reproduce the error.
…
acc, 'r', label='Validation acc')\r\nplt.title('Training and validation accuracy')\r\nplt.legend()\r\n\r\nplt.figure()\r\n\r\nplt.plot(epochs, loss, 'b', label='Training loss')\r\nplt.plot(epochs, val_loss, 'r', label='Validation loss')\r\nplt.title('Training and validation loss')\r\nplt.legend()\r\n\r\nplt.show()\r\n""]","['', '\r\nVGG Pretrained Model loaded.\r\n_________________________________________________________________\r\nLayer (type)                 Output Shape              Param #\r\n=================================================================\r\ninput_1 (InputLayer)         (None, 224, 224, 3)       0\r\n_________________________________________________________________\r\nblock1_conv1 (Conv2D)        (None, 224, 224, 64)      1792\r\n_________________________________________________________________\r\nblock1_conv2 (Conv2D)        (None, 224, 224, 64)      36928\r\n_________________________________________________________________\r\nblock1_pool (MaxPooling2D)   (None, 112, 112, 64)      0\r\n_________________________________________________________________\r\nblock2_conv1 (Conv2D)        (None, 112, 112, 128)     73856\r\n_________________________________________________________________\r\nblock2_conv2 (Conv2D)        (None, 112, 112, 128)     147584\r\n_________________________________________________________________\r\nblock2_pool (MaxPooling2D)   (None, 56, 56, 128)       0\r\n_________________________________________________________________\r\nblock3_conv1 (Conv2D)        (None, 56, 56, 256)       295168\r\n_________________________________________________________________\r\nblock3_conv2 (Conv2D)        (None, 56, 56, 256)       590080\r\n_________________________________________________________________\r\nblock3_conv3 (Conv2D)        (None, 56, 56, 256)       590080\r\n_________________________________________________________________\r\nblock3_pool (MaxPooling2D)   (None, 28, 28, 256)       0\r\n_________________________________________________________________\r\nblock4_conv1 (Conv2D)        (None, 28, 28, 512)       1180160\r\n_________________________________________________________________\r\nblock4_conv2 (Conv2D)        (None, 28, 28, 512)       2359808\r\n_________________________________________________________________\r\nblock4_conv3 (Conv2D)        (None, 28, 28, 512)       2359808\r\n_________________________________________________________________\r\nblock4_pool (MaxPooling2D)   (None, 14, 14, 512)       0\r\n_________________________________________________________________\r\nblock5_conv1 (Conv2D)        (None, 14, 14, 512)       2359808\r\n_________________________________________________________________\r\nblock5_conv2 (Conv2D)        (None, 14, 14, 512)       2359808\r\n_________________________________________________________________\r\nblock5_conv3 (Conv2D)        (None, 14, 14, 512)       2359808\r\n_________________________________________________________________\r\nblock5_pool (MaxPooling2D)   (None, 7, 7, 512)         0\r\n=================================================================\r\nTotal params: 14,714,688\r\nTrainable params: 14,714,688\r\nNon-trainable params: 0\r\n_________________________________________________________________\r\n<keras.engine.topology.InputLayer object at 0x000001C834ABD0F0> False\r\n<keras.layers.convolutional.Conv2D object at 0x000001C848B69828> True\r\n<keras.layers.convolution
…
\n<keras.layers.pooling.MaxPooling2D object at 0x000001C848C86DA0> True\r\n<keras.layers.convolutional.Conv2D object at 0x000001C848C99860> True\r\n<keras.layers.convolutional.Conv2D object at 0x000001C848CA4D68> True\r\n<keras.layers.convolutional.Conv2D object at 0x000001C848CAD710> True\r\n<keras.layers.pooling.MaxPooling2D object at 0x000001C848CB8EB8> True\r\n_________________________________________________________________\r\nLayer (type)                 Output Shape              Param #\r\n=================================================================\r\nvgg16 (Model)                (None, 7, 7, 512)         14714688\r\n_________________________________________________________________\r\nflatten_1 (Flatten)          (None, 25088)             0\r\n_________________________________________________________________\r\ndense_1 (Dense)              (None, 12)                301068\r\n_________________________________________________________________\r\nactivation_1 (Activation)    (None, 12)                0\r\n_________________________________________________________________\r\ndropout_1 (Dropout)          (None, 12)                0\r\n_________________________________________________________________\r\ndense_2 (Dense)              (None, 1)                 13\r\n_________________________________________________________________\r\nactivation_2 (Activation)    (None, 1)                 0\r\n=================================================================\r\nTotal params: 15,015,769\r\nTrainable params: 15,015,769\r\nNon-trainable params: 0\r\n_________________________________________________________________\r\nFound 46 images belonging to 12 classes.\r\nFound 26 images belonging to 12 classes.\r\nEpoch 1/50\r\nTraceback (most recent call last):\r\n  File ""C:/Users/w024029h/Pych
…
